LeNet1.pth (torch, 263585 bytes, 14 tensors)

weight2 f4 [1, 6, 1, 1]
00000000: c830 ae3f 5b15 c63e aac2 af3f 5e8c 7fbf
00000010: 8000 12bf 5cab 73bd
1.3608637 0.38688168 1.3731282 -0.9982356 -0.5703201 -0.059489593

bias2 f4 [1, 6, 1, 1]
00000000: 6998 ed3e 54a7 e33e 2946 193e e6a4 913e
00000010: 6d26 b83e 6f83 ca3e
0.46405342 0.444636 0.1496817 0.2844612 0.35966817 0.395534

weight4 f4 [1, 16, 1, 1]
00000000: 7a2c 48be 4195 e4be 1740 8a3e bc99 913e
00000010: d227 97be af8c 613e fd89 b7be 4e63 a4bd
00000020: 1aa8 c6be 38ac b33b eb94 493e 8a36 03bf
00000030: 93ce 1bbe 2e0b ebbd c593 39be 09e4 e1be
-0.19548216 -0.44645122 0.27002022 0.28437603 -0.29522568 0.22026323 -0.35847464 -0.08026753
-0.38800126 0.0054831766 0.19685714 -0.51255095 -0.1521552 -0.11476742 -0.18122776 -0.4411929

bias4 f4 [1, 16, 1, 1]
00000000: 2290 3b3d 76ac df3e 9595 1d3e 699b 023e
00000010: 5d54 e63d 15a1 0a3e 8900 0a3e 983d 763d
00000020: 600f 1b3e 4265 2f3c 1727 2a3d 058b 013f
00000030: 1dc4 423d 8c6e 923d 8554 843d b4d5 fd3e
0.045791753 0.43686265 0.15389092 0.12754597 0.1124656 0.1353801 0.13476767 0.060117334
0.15142584 0.010705294 0.041541185 0.5060275 0.04755031 0.071499914 0.06461433 0.49577105

conv3_mask f4 [16, 6, 5, 5]
00000000: 0000 803f 0000 803f 0000 803f 0000 803f
00000010: 0000 803f 0000 803f 0000 803f 0000 803f
00000020: 0000 803f 0000 803f 0000 803f 0000 803f
00000030: 0000 803f 0000 803f 0000 803f 0000 803f
00000040: 0000 803f 0000 803f 0000 803f 0000 803f
00000050: 0000 803f 0000 803f 0000 803f 0000 803f
00000060: 0000 803f 0000 803f 0000 803f 0000 803f
00000070: 0000 803f 0000 803f 0000 803f 0000 803f
00000080: 0000 803f 0000 803f 0000 803f 0000 803f
00000090: 0000 803f 0000 803f 0000 803f 0000 803f
000000a0: 0000 803f 0000 803f 0000 803f 0000 803f
000000b0: 0000 803f 0000 803f 0000 803f 0000 803f
000000c0: 0000 803f 0000 803f 0000 803f 0000 803f
000000d0: 0000 803f 0000 803f 0000 803f 0000 803f
000000e0: 0000 803f 0000 803f 0000 803f 0000 803f
000000f0: 0000 803f 0000 803f 0000 803f 0000 803f
00000100: 0000 803f 0000 803f 0000 803f 0000 803f
00000110: 0000 803f 0000 803f 0000 803f 0000 803f
00000120: 0000 803f 0000 803f 0000 803f 0000 0000
00000130: 0000 0000 0000 0000 0000 0000 0000 0000
00000140: 0000 0000 0000 0000 0000 0000 0000 0000
00000150: 0000 0000 0000 0000 0000 0000 0000 0000
00000160: 0000 0000 0000 0000 0000 0000 0000 0000
00000170: 0000 0000 0000 0000 0000 0000 0000 0000
00000180: 0000 0000 0000 0000 0000 0000 0000 0000
00000190: 0000 0000 0000 0000 0000 0000 0000 0000
000001a0: 0000 0000 0000 0000 0000 0000 0000 0000
000001b0: 0000 0000 0000 0000 0000 0000 0000 0000
000001c0: 0000 0000 0000 0000 0000 0000 0000 0000
000001d0: 0000 0000 0000 0000 0000 0000 0000 0000
000001e0: 0000 0000 0000 0000 0000 0000 0000 0000
000001f0: 0000 0000 0000 0000 0000 0000 0000 0000
00000200: 0000 0000 0000 0000 0000 0000 0000 0000
00000210: 0000 0000 0000 0000 0000 0000 0000 0000
00000220: 0000 0000 0000 0000 0000 0000 0000 0000
00000230: 0000 0000 0000 0000 0000 0000 0000 0000
00000240: 0000 0000 0000 0000 0000 0000 0000 0000
00000250: 0000 0000 0000 0000 0000 0000 0000 0000
00000260: 0000 0000 0000 0000 0000 0000 0000 0000
00000270: 0000 0000 0000 0000 0000 0000 0000 0000
00000280: 0000 0000 0000 0000 0000 0000 0000 0000
00000290: 0000 0000 0000 0000 0000 0000 0000 0000
000002a0: 0000 0000 0000 0000 0000 0000 0000 0000
000002b0: 0000 0000 0000 0000 0000 0000 0000 803f
000002c0: 0000 803f 0000 803f 0000 803f 0000 803f
000002d0: 0000 803f 0000 803f 0000 803f 0000 803f
000002e0: 0000 803f 0000 803f 0000 803f 0000 803f
000002f0: 0000 803f 0000 803f 0000 803f 0000 803f
00000300: 0000 803f 0000 803f 0000 803f 0000 803f
00000310: 0000 803f 0000 803f 0000 803f 0000 803f
00000320: 0000 803f 0000 803f 0000 803f 0000 803f
00000330: 0000 803f 0000 803f 0000 803f 0000 803f
00000340: 0000 803f 0000 803f 0000 803f 0000 803f
00000350: 0000 803f 0000 803f 0000 803f 0000 803f
00000360: 0000 803f 0000 803f 0000 803f 0000 803f
00000370: 0000 803f 0000 803f 0000 803f 0000 803f
00000380: 0000 803f 0000 803f 0000 803f 0000 803f
00000390: 0000 803f 0000 803f 0000 803f 0000 803f
000003a0: 0000 803f 0000 803f 0000 803f 0000 803f
000003b0: 0000 803f 0000 803f 0000 803f 0000 803f
000003c0: 0000 803f 0000 803f 0000 803f 0000 803f
000003d0: 0000 803f 0000 803f 0000 803f 0000 803f
000003e0: 0000 803f 0000 803f 0000 0000 0000 0000
000003f0: 0000 0000 0000 0000 0000 0000 0000 0000
1.0 1.0 1.0 1.0 1.0 1.0 1.0 1.0
1.0 1.0 1.0 1.0 1.0 1.0 1.0 1.0
1.0 1.0 1.0 1.0 1.0 1.0 1.0 1.0
1.0 1.0 1.0 1.0 1.0 1.0 1.0 1.0
1.0 1.0 1.0 1.0 1.0 1.0 1.0 1.0
1.0 1.0 1.0 1.0 1.0 1.0 1.0 1.0
1.0 1.0 1.0 1.0 1.0 1.0 1.0 1.0
1.0 1.0 1.0 1.0 1.0 1.0 1.0 1.0
1.0 1.0 1.0 1.0 1.0 1.0 1.0 1.0
1.0 1.0 1.0 0.0 0.0 0.0 0.0 0.0
0.0 0.0 0.0 0.0 0.0 0.0 0.0 0.0
0.0 0.0 0.0 0.0 0.0 0.0 0.0 0.0
0.0 0.0 0.0 0.0 0.0 0.0 0.0 0.0
0.0 0.0 0.0 0.0 0.0 0.0 0.0 0.0
0.0 0.0 0.0 0.0 0.0 0.0 0.0 0.0
0.0 0.0 0.0 0.0 0.0 0.0 0.0 0.0
0.0 0.0 0.0 0.0 0.0 0.0 0.0 0.0
0.0 0.0 0.0 0.0 0.0 0.0 0.0 0.0
0.0 0.0 0.0 0.0 0.0 0.0 0.0 0.0
0.0 0.0 0.0 0.0 0.0 0.0 0.0 0.0
0.0 0.0 0.0 0.0 0.0 0.0 0.0 0.0
0.0 0.0 0.0 0.0 0.0 0.0 0.0 1.0
1.0 1.0 1.0 1.0 1.0 1.0 1.0 1.0
1.0 1.0 1.0 1.0 1.0 1.0 1.0 1.0
1.0 1.0 1.0 1.0 1.0 1.0 1.0 1.0
1.0 1.0 1.0 1.0 1.0 1.0 1.0 1.0
1.0 1.0 1.0 1.0 1.0 1.0 1.0 1.0
1.0 1.0 1.0 1.0 1.0 1.0 1.0 1.0
1.0 1.0 1.0 1.0 1.0 1.0 1.0 1.0
1.0 1.0 1.0 1.0 1.0 1.0 1.0 1.0
1.0 1.0 1.0 1.0 1.0 1.0 1.0 1.0
1.0 1.0 0.0 0.0 0.0 0.0 0.0 0.0

weight f4 [6, 1, 5, 5]
00000000: 96b3 8f3e e86c 51be 9988 febe fbbd d9be
00000010: 4212 d7be 472b b53e 3db1 8c3d f38b a6be
00000020: afe8 21bf ba3b 51bd f620 c53d 900f 3e3d
00000030: cc7e 44bf f382 e9be e44b 2a3d 8fa9 1f3e
00000040: 7759 a3be db33 10bf dd8d 9bbe f65a 0b3e
00000050: 7c09 dc3c 6e74 f4be a333 1bbf 8435 a5bd
00000060: 81ee 6e3e 7dc2 b1bd e9e6 3f3d ed65 4a3e
00000070: d002 f73d 04b1 9e3c 3841 1bbe 5e6e 853c
00000080: 1211 b93c f6de 2cbe 312e 5cbd 16e1 37be
00000090: 85cb dcbd e34d ff3c 5080 aabd 6d85 d6bd
000000a0: 1de0 563e 1f08 343e 66e4 e6bd d496 b73d
000000b0: 9cc1 d23b 8c35 463d 72e4 923e 319d 09bd
000000c0: 1ce2 c03d 26dd 1abd 99ab b9be fb8d 98be
000000d0: bd87 0bbd 5053 47be e9ae 14bf 6c73 83be
000000e0: c1a4 17be 2a98 59be cf7b 3a3d 570a 10be
000000f0: 61a2 9cbc 8f4c 133e 42b0 13bd eec8 993e
00000100: 7e28 d93e 342b aa3e 8ffa d13e d978 fb3e
00000110: 0282 013f 8252 393f 48d8 553f cbb7 eb3e
00000120: 9912 053f 9fdf 083e 2672 103c d3a3 b23e
00000130: 3c2f 4e3e 4630 bcbd 3ea1 a3bc dd44 623e
00000140: aa27 a03e 4b82 7f3e 6c03 393d 90c8 1b3d
00000150: ad63 f63d 08da 023e 62ce 303e 77da b03d
00000160: bb42 aabd 2e58 473e 4af4 873e bec6 70be
00000170: d499 ecbd fc16 cabc 4413 ec3e 5f95 ba3d
00000180: 8660 b0be c42e bebd 77c9 8e3d 28cc c93e
00000190: 171a 253e 756d 4f3e 52b5 fabd 952a 743e
000001a0: 9370 223e 2614 c83d 550d 413e 3b4d 923d
000001b0: 0998 39bd 9674 b83d c730 403e 3cfa 07bd
000001c0: 9574 273e d7ba b9bc 891f e63d 5aef 82be
000001d0: cdc9 2fbe 724a 22be af50 dbbc 49c1 043e
000001e0: 8c84 07bb 4f0b 82be a2ad 96be 00d8 83be
000001f0: 2e92 703b f8ca f6bd 781d 37be 5415 363d
00000200: 8ae0 51be 7193 8cbd 9d97 233c 283a dc3d
00000210: 1b11 0a3e 44d0 013e c0cc a1bd b054 b1bd
00000220: 2baf c8bc 1d86 08bd 2db4 ad3d c024 28be
00000230: 3ee5 f93d eaef c0bd 3029 0fbd d0bb 103e
00000240: 1bda 4a3e cf64 1dbe 8e09 76bd 7432 523c
00000250: 0a9e c7bd e093 15be
0.280667 -0.204517 -0.4971359 -0.42527756 -0.42006117 0.3538458 0.06869743 -0.32528648
-0.6324567 -0.05108235 0.096254274 0.04640156 -0.76755977 -0.4560772 0.04157628 0.15592025
-0.31904194 -0.56329125 -0.3038167 0.13608918 0.026859991 -0.4774508 -0.60625666 -0.08066848
0.2333317 -0.08679674 0.046851072 0.19765444 0.12061083 0.019371517 -0.15161598 0.016287979
0.022591148 -0.16881928 -0.05375499 -0.17956957 -0.10781006 0.031165069 -0.08325255 -0.10474668
0.2098393 0.17581223 -0.11274032 0.08964315 0.0064317714 0.04839091 0.28689915 -0.033597175
0.09418127 -0.03780856 -0.3626373 -0.29795823 -0.034064997 -0.19465375 -0.5807939 -0.25673997
-0.14808942 -0.21249452 0.04552823 -0.14066444 -0.019120397 0.14384674 -0.036056764 0.3003611
0.42413706 0.33236086 0.41011474 0.49115637 0.50589 0.7239152 0.83533144 0.4603866
0.519815 0.13366555 0.008816278 0.34890613 0.20135206 -0.09188895 -0.019974347 0.22096582
0.3128026 0.24952047 0.04516928 0.03803307 0.120307304 0.12778485 0.17266229 0.08635419
-0.08313509 0.19467232 0.26553565 -0.23513314 -0.11552778 -0.024669163 0.46108449 0.091105215
-0.34448642 -0.092862636 0.0697202 0.3941357 0.16123234 0.20256598 -0.12241615 0.23844369
0.15863256 0.09769468 0.18852742 0.07143637 -0.045311008 0.09006612 0.18768607 -0.033197626
0.16353066 -0.0226721 0.112364836 -0.25573236 -0.17166825 -0.15848711 -0.026771871 0.12964357
-0.002067837 -0.25399253 -0.29429346 -0.25750732 0.0036708224 -0.12050432 -0.17882335 0.044453934
-0.20495811 -0.0686406 0.009984878 0.1075328 0.13483088 0.12677103 -0.07900381 -0.08658731
-0.02449759 -0.033331025 0.084816314 -0.16420269 0.122019276 -0.0942076 -0.03495139 0.14134145
0.19809763 -0.15370487 -0.060067706 0.012829412 -0.097469404 -0.14607191

bias f4 [6]
00000000: 0e51 55bc c1f9 b8bd 84cc a4bc 99ef 74be
00000010: af54 02be 078b 28be
-0.013019813 -0.09032012 -0.020117052 -0.23919524 -0.12727617 -0.16459285

weight f4 [16, 6, 5, 5]
00000000: 946d da3d 1b78 a1bc 463b 9e3c 4ad6 60bd
00000010: 350c dbbd ae21 9d3d f239 28bb aa48 9bbd
00000020: cba7 803d 1206 a6bd 8a03 cbbd f003 10bc
00000030: 4a12 d9bc 47b5 c03c df0e 013c 83cc 0e3d
00000040: e5c6 31bd d20e 49bd d039 253d bab2 443d
00000050: df15 743d 3df3 5abd a361 89bc 03ad 27bd
00000060: dafb 56bd d091 bcbb b4c3 f3bc 866a 913c
00000070: 5e3f 0c3b 6d24 373d 9e68 57bd 4ff1 7ebd
00000080: cfeb 433d 8f82 c8bc 1baa 71bd e325 5c3d
00000090: 8150 0d3d 491b d1bc 5880 10bd 3a27 7d3a
000000a0: 8b2f 56bd b36f 163d ec21 0abd aa76 a33d
000000b0: e87a 1cbd bf48 a33c 31d5 49bd 5075 b83c
000000c0: 156c 233d fc2a 18bc 59ba 2fbd 5b8e a43d
000000d0: 63d1 4cbd 0c9e 45ba 3351 a63d 8099 4fbd
000000e0: bd43 643c e7f8 8b3b 1e24 58bd f9e0 003c
000000f0: 0f96 0c3d 0f86 4ebd bb0f 32bc 4ad9 82bd
00000100: 32ac 283c 4649 843d e3cd da3d ed86 1cbc
00000110: 9b69 45bc 1353 8cbd 3116 86bd 326f ae3d
00000120: 4220 14bd a242 48bc ab40 2ebd 0000 0000
00000130: 0000 0000 0000 0000 0000 0000 0000 0000
00000140: 0000 0000 0000 0000 0000 0000 0000 0000
00000150: 0000 0000 0000 0000 0000 0000 0000 0000
00000160: 0000 0000 0000 0000 0000 0080 0000 0000
00000170: 0000 0000 0000 0000 0000 0080 0000 0080
00000180: 0000 0000 0000 0080 0000 0080 0000 0080
00000190: 0000 0000 0000 0000 0000 0000 0000 0000
000001a0: 0000 0000 0000 0000 0000 0000 0000 0000
000001b0: 0000 0000 0000 0000 0000 0000 0000 0000
000001c0: 0000 0000 0000 0000 0000 0000 0000 0000
000001d0: 0000 0000 0000 0000 0000 0000 0000 0000
000001e0: 0000 0000 0000 0000 0000 0000 0000 0000
000001f0: 0000 0000 0000 0000 0000 0000 0000 0000
00000200: 0000 0000 0000 0000 0000 0000 0000 0000
00000210: 0000 0000 0000 0000 0000 0000 0000 0000
00000220: 0000 0000 0000 0000 0000 0000 0000 0000
00000230: 0000 0000 0000 0000 0000 0000 0000 0000
00000240: 0000 0000 0000 0000 0000 0000 0000 0000
00000250: 0000 0000 0000 0000 0000 0000 0000 0080
00000260: 0000 0080 0000 0080 0000 0080 0000 0080
00000270: 0000 0080 0000 0080 0000 0080 0000 0080
00000280: 0000 0000 0000 0000 0000 0080 0000 0080
00000290: 0000 0080 0000 0000 0000 0000 0000 0080
000002a0: 0000 0080 0000 0080 0000 0000 0000 0000
000002b0: 0000 0080 0000 0080 0000 0080 4309 2e3d
000002c0: 2a07 403d 9a27 813d a98a 8b3c 890f 083d
000002d0: 3f95 863c 5a3f c03d 5f74 c53d b398 f13d
000002e0: 552d ffbc 4f07 a43d eb45 5b3b 6ec0 a63d
000002f0: bd4e 343c 3911 cbbc c1e4 013e 3f1b af3d
00000300: a650 003e d741 e63d 412d 443d b6fa ca3d
00000310: 02c2 92bc 998e cb3d 0b4d 703d 5557 79bd
00000320: 8d3f 683e 0c28 543e e743 333e b9a8 393e
00000330: 3b5b ed3d 93bb aa3e c35d 3c3e d223 903e
00000340: 992a a83e cca5 8e3e b8e9 b13e 57f1 7a3e
00000350: 4c64 363e 71cb 333e 6c40 71bd 8f9b 15bd
00000360: 0abf 9bbd 3e19 22be dabc ecbd 4350 a1bd
00000370: a4c2 133c 30ad afbd a3a9 76be 92f8 48be
00000380: 3abf bcbc 715c 8a3d e6a8 c03a 579f 5c3d
00000390: 266c 1cbd 98ce 17be f9e5 bf3d 1329 e53a
000003a0: 9d17 d8bd 5bff 0bbe 9e40 0abe c7fc 9b3c
000003b0: 1af4 10bd 84a6 773d c967 90bd b902 33bc
000003c0: 08ca 96bd 01d6 893c 9834 de3b e955 983d
000003d0: e2a4 e03c 8c9d bfbb f383 f83d 678a df3d
000003e0: 63cd 403e f3c7 ef3d 0000 0000 0000 0000
000003f0: 0000 0000 0000 0000 0000 0000 0000 0000
0.106654316 -0.019710591 0.019315373 -0.054891862 -0.10695688 0.076724395 -0.0025669304 -0.07582219
0.06282004 -0.081066266 -0.099127844 -0.008790001 -0.026497979 0.02352394 0.007877081 0.034863006
-0.04340257 -0.0490864 0.040338337 0.04802201 0.05959117 -0.053454626 -0.01677019 -0.04093648
-0.052486278 -0.005754687 -0.029756404 0.01775099 0.0021400074 0.044712473 -0.052590005 -0.06224185
0.047832306 -0.024476318 -0.059000116 0.05374707 0.034500603 -0.025525706 -0.03527865 0.00096570293
-0.052291434 0.03672762 -0.033723757 0.07981618 -0.03820315 0.019932149 -0.04927558 0.022516876
0.039897997 -0.009287592 -0.042902324 0.08034965 -0.050004374 -0.00075385044 0.08120956 -0.0506835
0.013932166 0.004271615 -0.05276882 0.007866138 0.034322795 -0.050420817 -0.010868008 -0.06389101
0.010294961 0.06459288 0.10683801 -0.009553653 -0.012049104 -0.06851783 -0.065472014 0.085173026
-0.036163576 -0.012222918 -0.04254214 0.0 0.0 0.0 0.0 0.0
0.0 0.0 0.0 0.0 0.0 0.0 0.0 0.0
0.0 0.0 -0.0 0.0 0.0 0.0 -0.0 -0.0
0.0 -0.0 -0.0 -0.0 0.0 0.0 0.0 0.0
0.0 0.0 0.0 0.0 0.0 0.0 0.0 0.0
0.0 0.0 0.0 0.0 0.0 0.0 0.0 0.0
0.0 0.0 0.0 0.0 0.0 0.0 0.0 0.0
0.0 0.0 0.0 0.0 0.0 0.0 0.0 0.0
0.0 0.0 0.0 0.0 0.0 0.0 0.0 0.0
0.0 0.0 0.0 0.0 0.0 0.0 0.0 -0.0
-0.0 -0.0 -0.0 -0.0 -0.0 -0.0 -0.0 -0.0
0.0 0.0 -0.0 -0.0 -0.0 0.0 0.0 -0.0
-0.0 -0.0 0.0 0.0 -0.0 -0.0 -0.0 0.0424893
0.046881832 0.063063815 0.017033892 0.03321794 0.016428588 0.09387083 0.09641337 0.11796703
-0.031149546 0.080092065 0.0033458422 0.08142172 0.011005101 -0.024788486 0.12684919 0.08550119
0.12530765 0.11243027 0.04789472 0.099111006 -0.017914776 0.09939308 0.058667224 -0.060874302
0.22680493 0.20718402 0.17506371 0.18130769 0.115896665 0.33346233 0.18395142 0.2815233
0.32845 0.27860868 0.34748626 0.24506126 0.17811698 0.17558075 -0.058899328 -0.036525305
-0.07604797 -0.15829942 -0.11559458 -0.07876637 0.009018574 -0.08577955 -0.24088149 -0.19626072
-0.023040403 0.06755913 0.0014698773 0.053862896 -0.038189076 -0.14824903 0.09370036 0.0017483555
-0.10551379 -0.13671629 -0.13501212 0.019041432 -0.035389043 0.060461536 -0.070510454 -0.010925942
-0.07362753 0.016825678 0.006781172 0.07438261 0.027422372 -0.0058476385 0.12134542 0.1091507
0.18828349 0.11708059 0.0 0.0 0.0 0.0 0.0 0.0

bias f4 [16]
00000000: b53b 01bc a425 c83d 785c 08bd cc7d 003d
00000010: 940f 183d 222f dcbc 51c8 f93d 0ccb 8c3b
00000020: 62b6 973d 78d8 d53c 4a7c d83b b58c 2b3d
00000030: 54e6 90bd 4a0f 6dbd abaf 923c 3752 4f3e
-0.00788777 0.097728044 -0.03329131 0.03136997 0.03712423 -0.026877943 0.121964104 0.004296666
0.07407834 0.026104197 0.0066066133 0.041882236 -0.070751816 -0.05787591 0.01790603 0.20246206

weight f4 [120, 16, 5, 5]
00000000: 0fa3 77bc 6ce1 14bd 4864 35bd 4558 143c
00000010: 54da e2bc 0ea9 de3c 01dd 4a3c 559b 12bd
00000020: 8127 1dbd bfe8 1d3d 0583 3b3a 76f5 1a3d
00000030: f8d0 d3ba b8cf 68bd 6a51 2a3d 9729 ab3b
00000040: e0e0 923c e1e2 a53c f516 48bd 50aa ffbb
00000050: 7450 d63c 34f2 cebc c7f9 693b ccfb 1cbd
00000060: 0494 393c 5b1e c43c a920 91bd 9bec a63c
00000070: 7ed4 8c3b 04c8 6a3d 8171 37bc 4139 903c
00000080: 20bb c6bc 4304 e1bc b39c a5bd 45c4 4fbd
00000090: 5cb3 aebd 05f2 36bd ac23 78bd 9a6a 39bd
000000a0: 863d e1ba 0724 da3c d09f bb3b ca11 783c
000000b0: 3bf4 a83c 37e4 99bc d51f 013d 2bc2 d5bb
000000c0: 5996 853b a8e1 793d d563 493c bf15 cc3c
000000d0: ca86 2d38 1498 09bd 3495 32bd 6c07 343d
000000e0: af3c 1e3d 17bf f5bc 8044 7d3c 8e62 b5bc
000000f0: 7e9f ad3b 1514 f73b f51d f63c c5b9 d83b
00000100: c47b 12bd 9396 153c 64a6 49bd e055 bcba
00000110: f940 0e3c 60e8 373d e788 e5bc edcb 26bb
00000120: f8c2 b93c 6a7b 2ebd 3ef5 173d ecb2 22bd
00000130: 0f2c 05bc 8575 293c c3d5 3a3c b84a ce3c
00000140: fabc c5bc 6d99 ecbc 09af 7c3c 1848 eb3c
00000150: fb40 d7ba e9a5 5fb6 e2e3 ebbc 9ea7 3b3d
00000160: bee5 f4bc 39b6 65b9 bd59 6ebc 15de abbc
00000170: f8ea 31bd a16a bfbc 0654 b33c 6181 0b3d
00000180: 7abd 573c b8a3 3fbd 24b5 343d b21e 6ebc
00000190: 0cc2 283c cf27 e23b 7e87 f7bb 03d9 fe3b
000001a0: 703b 8e3c 66d5 ee3c 2811 a7bc 9acd 05bd
000001b0: 806c c6bc f30f 1a3c 578a 33bd 7115 1dbc
000001c0: 1b2d 90bc c7bc 0f3d af01 a8bb dfa6 6fba
000001d0: f14a 6b3d 0e6d a7bc 0277 96bc ada2 2bbd
000001e0: ebf6 ddbc 9e1f f4bc 6e68 c63c 9ee0 d23c
000001f0: 4eb3 293d 997c 01bd 366c 0a3a 985f 4e3d
00000200: 4037 033d 3f03 083d 6393 593c aef0 bc3a
00000210: 1c95 c3ba 9e43 a93c f79a 2d3c b42b e53c
00000220: d0ff cbbc 81b2 063d 477c 5cbd 8347 79bd
00000230: 884e b1bc 5e89 0bbc 7dbe 52bd a562 d8bc
00000240: 0d56 01bd e29a 543b 63e5 81bd 9739 8cbc
00000250: 479b 16bd 7198 053d d625 c13b 3960 d6bc
00000260: 1fb4 533d 0245 1a3d 4f2e b53b f0e7 0cbb
00000270: 9060 cbbc 049d 063d e7ca f53c 625a bfbb
00000280: dd68 a3bc a91b 973b 8c30 1c3d bcd5 043c
00000290: a0da 84bc 4d5f e43b 24ab e73c 3990 8b3c
000002a0: f96c 97bd ce98 16bc 9cd0 88bd 981f 553d
000002b0: 28df 30bd 927e d13c 3fd0 5e3d 949f 42bd
000002c0: 6e64 ecbc ee14 2a3d 8151 343c 8800 5cbd
000002d0: ee1b e1bc ac4d 7a3b c8bf 323d f55b c6bc
000002e0: 88df b7bc f993 3dbd 88e6 0ebd 146d 263d
000002f0: 3daa 2bbd 8208 bd3c 3f63 48bd c731 46bd
00000300: a987 f0bc 4f92 393d b22c 293d 6fb7 2cbd
00000310: 16f3 fcbb 2010 2e3c d87f 193c 1967 b73c
00000320: 5cbd 54bd cb5c c2bc 74e2 843c e6fc cabb
00000330: 5946 f23b 0cc4 debb 7c1e 333d 0d83 05bc
00000340: 88d6 e4bc c50e 993c 1fbe ec3a af9b 363c
00000350: abd0 9e3c 1057 443d 246d 05bd e41b 25bd
00000360: c81d 3abc e152 b83c 86b9 7cbb 12e4 a53c
00000370: 5595 0bbd 5534 49bc 43f3 26bd 97dd 46bd
00000380: 1a46 c1bc 9ec0 04bb 6d14 10bb 7951 e8ba
00000390: 2189 793c fe04 793c 7cdf 55bd f492 5fbc
000003a0: 5a9d e23c 2371 7a3c 5072 3e3d 5588 ad3c
000003b0: 177f a0bb a9ea 51bd 60bf 23bd b504 50bb
000003c0: bb14 82bb db15 4dbc 83dc 29bc ea03 693c
000003d0: a182 903c d35b 033c 8b13 90bc 14d3 e6bb
000003e0: f50e 22bd b2dd 38bd 27de e73c a87a 1bbd
000003f0: d9a1 e9bc afdb 16bd 650f afbc 7725 333d
-0.01511456 -0.03634779 -0.04428509 0.009054248 -0.027691998 0.027180221 0.012381793 -0.035792667
-0.038367752 0.038552042 0.00071530073 0.037831746 -0.00161603 -0.05683872 0.04158155 0.0052234638
0.017929494 0.020249786 -0.04885002 -0.0078022853 0.02616141 -0.025261976 0.0035701857 -0.03832607
0.011326794 0.023940256 -0.070863076 0.020376494 0.004297792 0.057319656 -0.011196495 0.017605426
-0.02425915 -0.027467852 -0.08086529 -0.050724287 -0.08530304 -0.0446644 -0.060580894 -0.04526768
-0.0017184473 0.026628507 0.0057258382 0.01514096 0.02062427 -0.01878558 0.031524498 -0.0065233908
0.0040767607 0.06100622 0.012291868 0.024912713 4.1371946e-05 -0.0335923 -0.043599322 0.04395239
0.03863209 -0.029998345 0.015458226 -0.022141721 0.005298554 0.0075402358 0.030043582 0.0066139423
-0.035762563 0.009130138 -0.049230948 -0.0014368854 0.008682483 0.044899344 -0.028019382 -0.002545114
0.022675976 -0.042598166 0.037099116 -0.039721414 -0.00812818 0.01034296 0.011403504 0.025182113
-0.024137963 -0.028881753 0.015422591 0.0287209 -0.0016422564 -3.3326162e-06 -0.028795186 0.04581415
-0.029894706 -0.00021907025 -0.014547762 -0.02097992 -0.043436974 -0.023366274 0.021890651 0.034058932
0.013167733 -0.046786994 0.04411806 -0.0145336855 0.010300171 0.006901718 -0.0075539937 0.0077773347
0.017362326 0.02915449 -0.020393923 -0.03266678 -0.024221659 0.009403217 -0.043833103 -0.009587632
-0.017599633 0.03509214 -0.005127154 -0.0009141992 0.057444517 -0.020437744 -0.018367294 -0.041903187
-0.027095279 -0.029800232 0.024219718 0.025741871 0.041430764 -0.031612966 0.0005280407 0.050384134
0.032035112 0.03320622 0.013279769 0.001441499 -0.0014921757 0.020662125 0.0105960285 0.02797494
-0.024902254 0.03288508 -0.053829458 -0.060859215 -0.021643892 -0.008516638 -0.051451195 -0.026414225
-0.031576205 0.003244095 -0.0634258 -0.017117305 -0.036769178 0.032616083 0.005894403 -0.02616893
0.05168545 0.037663467 0.005529202 -0.002150055 -0.024826318 0.032864586 0.030003978 -0.005839632
-0.019947464 0.0046114516 0.038132235 0.008107599 -0.01621753 0.0069693686 0.028279848 0.017036544
-0.07393832 -0.009191705 -0.06680414 0.052032083 -0.04318157 0.025573049 0.054397818 -0.047515467
-0.028856482 0.041523866 0.01100576 -0.053711444 -0.027479138 0.0038193269 0.043639928 -0.02421377
-0.022445455 -0.046283696 -0.03488782 0.04063137 -0.0419104 0.023075346 -0.048922773 -0.048387315
-0.029361563 0.045305546 0.04130239 -0.042167123 -0.007719408 0.010623962 0.009368859 0.022388028
-0.0519384 -0.023725888 0.016221263 -0.0061946986 0.00739364 -0.006798273 0.043730244 -0.008148921
-0.027934328 0.0186838 0.0018062032 0.011145516 0.01938661 0.04793459 -0.032574788 -0.0403098
-0.0113596395 0.022500457 -0.003856273 0.020250354 -0.03407796 -0.012280543 -0.040759336 -0.04855117
-0.023592997 -0.002025641 -0.002198483 -0.0017724476 0.015230448 0.015198944 -0.052215084 -0.013645876
0.027662922 0.015285763 0.046495736 0.021183172 -0.004897963 -0.05124918 -0.03997743 -0.0031741087
-0.0039697564 -0.012517418 -0.0103675155 0.014222125 0.017640414 0.008017498 -0.017587444 -0.0070442054
-0.039565045 -0.0451333 0.028304173 -0.03795877 -0.028519558 -0.0368306 -0.021369645 0.0437369

bias f4 [120]
00000000: cb49 4bbc 8aa3 da3c ac02 0b3d eb63 16bd
00000010: 406c bf3d 0fae 8a3c 0a0e 1abd 90ca 24bd
00000020: 5988 76bd cdf6 23bd 28f3 073d 93aa 693d
00000030: a1e5 993d bf5f e8bb 337c 16bd 5a31 11bd
00000040: 06bf 063d 2a7e 0dbb 0c65 b73d b9b4 5f3d
00000050: 78b2 68bd d7f3 083d bd5e 63bd 1f60 64bc
00000060: c845 293d 46bb 5abc 9826 d4bc 7bd7 d43b
00000070: e47e b4bc cc29 10bd 53b5 213c 68cd 023d
00000080: 9c6a 23bd 8cb6 70bd 0e64 983d f090 a6bd
00000090: 73ac 2f3d ce8d 27bc 12e6 8e3b 8541 9a3b
000000a0: 028e 563d a308 6dbb 1f09 28bd 7907 a3bd
000000b0: b8b1 0cbd 941c 993b 469a 2b3d dbe3 4fbc
000000c0: ba44 15bc 2d9f 98bd b18d 53bc 15f2 14bd
000000d0: d6c6 b53a 0aae 20bc be0e 0d3d efb3 9d3c
000000e0: d894 1b3d 465a 6fbd b3af 86bd 7025 503d
000000f0: bfd4 893c 92a9 743d 26dd 8f3d 25be 573b
00000100: 8595 8fbc 61a0 723c 76d7 9d3d 41c3 62bb
00000110: 114c 433d b747 2a3d cb9c 903c dc78 28bd
00000120: 1679 2bbc 49c0 27bd d410 fabc f71a bfbd
00000130: aa52 1cbd 6d91 4b3d aacc 533c df24 21bd
00000140: 2f21 353d a826 98bd 42e9 54bd ab18 613d
00000150: 6000 f5bc 3c81 273c 2829 77bd ce01 363c
00000160: de25 50bd f7d8 b23c ef11 dabc 3e67 c8bc
00000170: 6359 cc3c ac06 20bd 99cc 86bc 86d5 2d3d
00000180: 8d9d 5abd 6c48 b8bb b0bc 283c bd7c 5abd
00000190: 65a0 9bbd c88b be3c b4fb ccbc 5d47 023e
000001a0: c34e 303b 3753 c2bd 6205 1b3d 5d55 e13d
000001b0: b088 17bc 863d cabb bd8b 643d 7aec 45bd
000001c0: 68be 89bd 219a 863b f276 213d 8acb 5c38
000001d0: 3155 8b3c 90db 83bd fa9b febc ca1c 79bd
-0.01240773 0.02668931 0.033938095 -0.036716383 0.09346819 0.0169287 -0.037611045 -0.04023224
-0.060188625 -0.04003029 0.033190876 0.057047438 0.07514501 -0.007091492 -0.03673954 -0.035447456
0.032897018 -0.0021590092 0.0895482 0.05461571 -0.056810826 0.03343567 -0.05551027 -0.013938933
0.041326314 -0.0133503135 -0.02589731 0.006495414 -0.022033162 -0.03519611 0.009869891 0.031934172
-0.039896592 -0.05876784 0.07440959 -0.081331134 0.04288907 -0.01022668 0.0043609226 0.0047075176
0.052381523 -0.0036168478 -0.041024324 -0.0796041 -0.034349173 0.004672596 0.041895173 -0.012688602
-0.009110624 -0.07452235 -0.0129122 -0.03636368 0.0013868462 -0.009807119 0.034437887 0.019250838
0.037983745 -0.0584357 -0.06576481 0.050816953 0.016825078 0.059732027 0.070246026 0.0032919731
-0.017527351 0.014808745 0.077071115 -0.0034601244 0.047679964 0.0415723 0.01765289 -0.041130885
-0.010465881 -0.04095486 -0.030525602 -0.09331315 -0.038164772 0.049699236 0.012927214 -0.039341804
0.0442211 -0.07429248 -0.051980264 0.054955166 -0.029907405 0.010223683 -0.060341984 0.011108829
-0.050817363 0.021831973 -0.02661988 -0.024463292 0.024944967 -0.039068863 -0.016454982 0.04243996
-0.05337291 -0.0056238677 0.010298893 -0.053341616 -0.07598952 0.023260012 -0.025022365 0.12722535
0.0026902414 -0.09488528 0.03784693 0.1100261 -0.009248897 -0.006171885 0.055797327 -0.048321225
-0.0672577 0.004107729 0.039420076 5.2641648e-05 0.017008396 -0.064383626 -0.031080235 -0.06081847

weight f4 [84, 120]
00000000: adef d9bb 1a01 8d3d 287f 823d 1103 80bd
00000010: 1a8b 58bd ad04 8d3d e987 393d ae12 983d
00000020: 95fc a13c ebbc 283d 659e 58bd 1226 88bd
00000030: 2a93 94bc 0804 aabd 1b04 88bd 5bf4 13bd
00000040: 91a2 d7bc 99c2 e0bb 3961 b13c 674c d43c
00000050: 81ea 803d 1acb 06bd b88d 973d 40ce bd3b
00000060: 83f7 843d b7f9 e93b 8e0f 5a3d d43c 1e3d
00000070: 0e27 da3b f43c db3c 5645 9d3d e932 c1bd
00000080: f2c1 16bd cb49 643c 5aca fc3c bf76 fbbb
00000090: 6a5d b23d 4a93 993d 680e 3c3c 07d1 7f3d
000000a0: 070f 47bd 2ea8 99bd aa02 45bb 5102 a6bd
000000b0: 6fcb cf3c 171e a4bc 8a44 883d e04b a2bc
000000c0: 38a0 d93c 7245 acbd 300e 1e3c 40b5 b83c
000000d0: 165c a5bd 0baa d2bc 37a2 e4bc 17d4 7c3d
000000e0: b042 3cbb fdea febc 7a04 303d 0815 c73d
000000f0: 6523 78bd 6b48 8e3d 8b37 d9bc e4f2 8abd
00000100: 788e afbd a015 02bd 2a24 0f3d 8cf9 423d
00000110: 5301 36bd 625a b33c 02f7 3f3d a485 1fbd
00000120: 7e48 723d 610a d4bc 9693 c3bc cf7f 9e3d
00000130: 8ed9 86bd 7a09 1cbd 49f9 64bc f000 29bd
00000140: 3149 f3bc 2fb7 38bd 8e5d 8fbd eb3d 81bd
00000150: ce45 353d ef92 79bd 0ded 58bd e15f 503d
00000160: c54a 043c cae9 12bd b328 253c 9fe7 aa3b
00000170: c77f e63b 1dea 823b bca6 21bd 6496 58bd
00000180: fcf7 c63c da70 da3c 7cdc 85bd 8fc5 31bd
00000190: 640c 803d 2995 5b3b 8d2b 973d 6d79 873d
000001a0: ad4c 84bd ce0a c7bd ca5a a33d 6fe8 bd3d
000001b0: a9b0 833d 637d 1d3d 1952 c53c fbc8 88bc
000001c0: 83bc 36bd 7424 453d 7d37 70bd 3b9e 93bd
000001d0: 2615 083d a1f1 2ebc d76b 003d 9408 b6bc
000001e0: d847 403d 0914 f43c 7340 1fbd deed 98bd
000001f0: d1b4 17bd 37a5 e2bc 9e2b 4abd aac3 aa3c
00000200: 4f7a 01bc 0125 db3c d8f9 88bd 802e c6bc
00000210: f460 f5ba e824 903d 9244 2ebc fc4d 433d
00000220: da7f 29ba c6de 9abd 1a78 15bc d3e4 d73c
00000230: 208b 0cbd bbff aa3d 8715 8fbc f8bd 4bbd
00000240: bca4 5b3c fb35 733c efb8 7a3c 57d1 88bd
00000250: 6be0 89bc b33a 0a3d d7c6 2a3d 67a4 54bd
00000260: 7f61 83bc c842 77bd 0922 35bd 12ed bf3c
00000270: 8f52 2b3d bf42 d83c b312 4cbc 18ad 803d
00000280: 66ec f0bb d518 213d 92b8 fdbc fb0b a63c
00000290: a69d 16bc 2557 c0bb 3e9d 42bd 0517 0f3d
000002a0: d3e7 5e3c e457 633d 3d73 33bc a903 803c
000002b0: 7d9c e2bb 52bc 81bd 030b 2e3c 4ddd a43d
000002c0: ad95 923d 7ffd 723d 5bcf 463c 877a b63c
000002d0: 7652 0d3c 8c7a a5bc 549d 883d d8e3 853d
000002e0: eba7 813a d3c4 edbc 0d79 0abd bfbf 743d
000002f0: 5866 883d d187 f73c b764 d43c 46c4 f9bc
00000300: b8b0 93bc f53a 8b3a f769 613d 3cae 21bd
00000310: a705 4ebd 30b5 24bd 3ade e93c 4916 aabd
00000320: 9bf6 663d 3352 95bd ad76 4dbd 8afd ba3d
00000330: c011 c9bc 9907 53bc ad7d f2bb 876f 6b3d
00000340: 8975 b93c 756c 803d 03dc cbbc 91a0 be3d
00000350: 7df1 1cbd b25c 48bc 84ad 263d d642 d63c
00000360: d1ae 053c 8507 a4bc 2fbd 603d e5dc a63d
00000370: 0b77 86bd 1443 a2bd 27a2 9ebd 43c2 923d
00000380: 63cb f8bb dba0 23bd af07 233d 10b3 133c
00000390: 569e 1cbd 2ae2 973d 73a1 3a3d 76a2 3f3d
000003a0: 3814 08bd 1a70 39bc f5c1 783d a00a 73bb
000003b0: a5ae c23d ebca 0dbc 3faf 923b a881 2b3d
000003c0: f2e2 c83b 802b fa3c 805c fb3b fb4d 6abd
000003d0: e7e1 31bd d36f a83c 3fc0 b73c 04e4 603c
000003e0: a169 eb3b 979e 1c3d 4146 bebd eef5 0b3d
000003f0: b149 55bd d7d0 adbb 532e 97bd e5b1 f5bc
-0.006650886 0.06884976 0.063719094 -0.06250585 -0.052867033 0.068856575 0.04529563 0.07425438
0.01977376 0.04119579 -0.05288543 -0.06647886 -0.01813658 -0.0830155 -0.06641408 -0.036121707
-0.026322635 -0.0068591353 0.021652805 0.025915338 0.06294728 -0.032908536 0.074000776 0.005792409
0.064925216 0.007140364 0.05323749 0.03863223 0.0066574877 0.026762463 0.076792404 -0.094335385
-0.036806054 0.013933609 0.030858207 -0.0076740677 0.087092236 0.07498796 0.011478044 0.062455203
-0.048598316 -0.07502781 -0.0030061402 -0.081059106 0.02536556 -0.02003388 0.06653698 -0.01981157
0.026565656 -0.08411683 0.009646937 0.022547364 -0.080742046 -0.025715848 -0.027909381 0.061725702
-0.0028726272 -0.03111791 0.04297302 0.09720808 -0.06058063 0.069474064 -0.026515743 -0.06784609
-0.08572096 -0.031758904 0.034946598 0.047601268 -0.044434857 0.021893684 0.046866424 -0.03894581
0.059151165 -0.025883855 -0.023874085 0.07739221 -0.06584464 -0.038094975 -0.01397545 -0.04126066
-0.029697986 -0.045096572 -0.07000266 -0.06310638 0.044256024 -0.060931142 -0.052960444 0.050872687
0.008074467 -0.03586749 0.010080504 0.0052155997 0.007034275 0.0039951936 -0.03946565 -0.0528778
0.02428817 0.02666514 -0.06536195 -0.043401297 0.06252363 0.0033505654 0.073813535 0.06614957
-0.06459937 -0.09718858 0.07976301 0.09272849 0.064301796 0.038449656 0.024086999 -0.016697397
-0.044613373 0.048130468 -0.058646668 -0.072079144 0.033223294 -0.010677726 0.031352844 -0.022220887
0.046943516 0.02979471 -0.038879823 -0.074672446 -0.037037674 -0.027666671 -0.049358003 0.020845253
-0.007902696 0.026751043 -0.06688279 -0.024192095 -0.0018720911 0.07038289 -0.010636466 0.047681794
-0.000646589 -0.07562022 -0.009122873 0.02635423 -0.034312367 0.08349558 -0.01746632 -0.049741715
0.013405975 0.014844413 0.015302881 -0.066805534 -0.016830644 0.033747386 0.041693535 -0.0519146
-0.0160377 -0.060366422 -0.04422191 0.023428474 0.04182678 0.026399015 -0.01245563 0.06283015
-0.0073523996 0.039330322 -0.030971799 0.020269385 -0.00919286 -0.0058697634 -0.04751324 0.034934063
0.013605076 0.05550374 -0.010952768 0.015626745 -0.0069156275 -0.063347474 0.010622743 0.08050022
0.07157455 0.059323784 0.012134398 0.022275222 0.008625617 -0.020200036 0.06670633 0.06537598
0.0009891962 -0.029024517 -0.03380685 0.059753176 0.066601455 0.03021613 0.02592693 -0.030489098
-0.018028602 0.0010622429 0.055032697 -0.039472803 -0.05029836 -0.040211856 0.028548349 -0.08305032
0.056387525 -0.07291069 -0.050162006 0.0913039 -0.024544597 -0.012880229 -0.0074002356 0.057479408
0.022639053 0.062706865 -0.024885183 0.09307969 -0.03831624 -0.012229132 0.04069282 0.026154917
0.008159355 -0.020023117 0.05486792 0.08147601 -0.065656744 -0.079229504 -0.07745772 0.07165959
-0.007592605 -0.039948326 0.03980225 0.00901486 -0.03823694 0.07416184 0.045564126 0.046785794
-0.033222407 -0.011318231 0.060731847 -0.003708519 0.09505967 -0.008654336 0.0044764574 0.041871697
0.0061305696 0.03053832 0.007670939 -0.057203274 -0.043428328 0.020561134 0.022430537 0.013726238
0.007184223 0.03823718 -0.092907436 0.034170084 -0.05207223 -0.0053044367 -0.073818825 -0.029992053

bias f4 [84]
00000000: e800 753d 990f 1f3d 8ba1 853c f05f 18ba
00000010: 8948 853b ab0d 163d 8d12 503c ef51 2f3c
00000020: 8c03 233d 62e4 2a3d 77f8 14bd 4408 06bd
00000030: 84a4 063d cfe6 833d 6dd1 773d 5bc3 e53c
00000040: 787a 93bd 958f d8bd 6aa8 29be 58a6 e6bc
00000050: 3e37 ea3c 2098 aa3d 3ef1 f83c 866d d7bc
00000060: 423d b1bd e9df bebd e842 02bc 4d74 e43c
00000070: 3f4c 443d 2d90 9a3d 21a6 c13b d2ba 273c
00000080: 386d 9ebd fc7b 3b3d 087b 653d e10d 9c3c
00000090: db83 563d c5de 2abd e89e 55bd 5d09 25be
000000a0: 3ae0 b4bc e045 a7bb e8fb 5a3d 1b8d 783d
000000b0: 6772 adbc 603b e3bd f418 2cbd 7b92 df3c
000000c0: 2cdc 0d3c a32f ea3c 82b9 583c cca2 f23c
000000d0: 9dca eebd d167 7fbd 4467 b13d e414 c33d
000000e0: 0dc5 263d 3d60 b23c 9bef d1bd 073d bdbc
000000f0: 9ef2 b5bd 9e8c 913d d3cf f03c 07ef ab3d
00000100: 8f87 fcbb 6960 f1bd b406 cebd e37b d0bd
00000110: 7261 7f3c bbf0 6f3d 6037 843d bbad 853c
00000120: 13bb 8ebd 92c2 a7bd 8908 64bd 6616 853d
00000130: 8297 543d 6746 9f3d 3bd4 2a3d 4e40 1fb9
00000140: 3355 9e3c 2ee9 143d 528f e93c d072 d23d
0.059815317 0.038833234 0.016312381 -0.00058126356 0.0040674848 0.03663413 0.012699735 0.010700687
0.039798304 0.04172171 -0.036369767 -0.032722726 0.032871738 0.064405076 0.06050246 0.028047254
-0.072010934 -0.10574261 -0.16568151 -0.02815549 0.028590795 0.08329797 0.03038847 -0.026297342
-0.08654262 -0.09320051 -0.007950522 0.027887488 0.047924276 0.075470306 0.0059096967 0.0102374125
-0.077356756 0.045772538 0.056025535 0.019049587 0.05237184 -0.041716356 -0.052153498 -0.16116853
-0.022079576 -0.0051047653 0.053462893 0.060681444 -0.021172715 -0.11095309 -0.042015985 0.027291527
0.00865845 0.028587168 0.013227822 0.029618643 -0.11659739 -0.062354866 0.086622745 0.09525469
0.040715266 0.021774406 -0.10250779 -0.02310039 -0.08884166 0.07106899 0.029395973 0.083952
-0.0077065895 -0.11785967 -0.10059872 -0.101798795 0.015587198 0.058579188 0.064558744 0.016318193
-0.06969275 -0.08191408 -0.055672202 0.06498413 0.0519023 0.077771 0.041706305 -0.00015187377
0.019327736 0.03635519 0.028510723 0.10275805

prototypes f4 [10, 84]
00000000: 0000 0000 0000 0000 0000 0000 0000 0000
00000010: 0000 0000 0000 0000 0000 0000 0000 0000
00000020: 0000 0000 8883 8137 3c17 883a cd0e 303a
00000030: 6ae4 a137 0000 0000 0000 0000 8883 8136
00000040: 0a25 e23a 0b66 223b 564b 443b be08 2e3a
00000050: 0000 0000 0000 0000 8883 0139 e773 3c3b
00000060: 31cc 193a 7a1d 0a3b 5ad2 9b3a 0000 0000
00000070: 0000 0000 5a4b c439 4ea7 4d3b db14 3239
00000080: a6af e53a 266f a53a 0000 0000 0000 0000
00000090: e217 333a 39dd 343b f58d da38 07d4 f13a
000000a0: a08c 843a 0000 0000 0000 0000 bae2 763a
000000b0: d7eb 0e3b db14 b238 58cc 193b 8b60 4b3a
000000c0: 0000 0000 0000 0000 21bd 943a 70fb fe3a
000000d0: bc75 d238 ed76 3d3b 90d0 f039 0000 0000
000000e0: 0000 0000 31c3 963a 6070 103b 74c4 ec39
000000f0: 0b86 423b a2fc 2939 0000 0000 0000 0000
00000100: 71e7 223a c7c3 413b 4cc6 173b 7b4f f03a
00000110: 8883 8136 0000 0000 0000 0000 4c45 c237
00000120: 6d29 8e3a ed69 ce3a 2da6 e237 0000 0000
00000130: 0000 0000 0000 0000 0000 0000 0000 0000
00000140: 0000 0000 0000 0000 0000 0000 0000 0000
00000150: 0000 0000 0000 0000 0000 0000 0000 0000
00000160: 0000 0000 0000 0000 0000 0000 0000 0000
00000170: 0000 0000 6ae4 a137 cfa1 8b39 189d 5f3a
00000180: 2da6 e238 0000 0000 0000 0000 8883 0137
00000190: 47d5 1c3a 371c 1f3b 27b4 113b 15c0 1539
000001a0: 0000 0000 0000 0000 6ae4 a137 55db 1e3a
000001b0: c502 2c3b 5b43 ec3a 6ae4 2138 0000 0000
000001c0: 0000 0000 4d45 4237 00b7 123a ab61 f63a
000001d0: 5430 bb3a 8883 0137 0000 0000 0000 0000
000001e0: 0000 0000 db14 b238 2513 1c3b bc75 523a
000001f0: 0000 0000 0000 0000 0000 0000 8883 0137
00000200: 4c45 4238 64f2 3b3b f3fa fe39 0000 0000
00000210: 0000 0000 0000 0000 8883 8136 a069 4e39
00000220: 2392 463b 6851 c639 0000 0000 0000 0000
00000230: 0000 0000 4c45 c237 132d ba39 bc5e 353b
00000240: 9263 cc39 6ae4 2138 0000 0000 0000 0000
00000250: 31cc 1939 451a 893a 6231 263b 363c 3f3a
00000260: 8883 8138 0000 0000 0000 0000 d981 5639
00000270: dc73 fc3a 0fa8 0d3b 20cd c43a 9ed6 7238
00000280: 0000 0000 0000 0000 0000 0000 0000 0000
00000290: 0000 0000 0000 0000 0000 0000 0000 0000
000002a0: 0000 0000 0000 0000 0000 0000 0000 0000
000002b0: 0000 0000 0000 0000 0000 0000 0000 0000
000002c0: 0000 0000 4c45 4238 a79f b53a 0394 5c3a
000002d0: 4d45 4237 0000 0000 0000 0000 6ae4 2138
000002e0: 94ca 033b 1169 233b 1d8f 453b 778d af3a
000002f0: 0000 0000 0000 0000 8883 0139 41d9 c83a
00000300: c89e 0a3a d389 033b 79ee cf3a 0000 0000
00000310: 0000 0000 4c45 c238 86f0 253a c19b 8939
00000320: 03a2 0b3b 1e6c a43a 0000 0000 0000 0000
00000330: 8883 8137 9ed6 f238 f3fa 7e39 7018 5e3b
00000340: 23c6 9739 0000 0000 0000 0000 0000 0000
00000350: c19b 8938 ab61 f63a a1fd d43a 4d45 4237
00000360: 0000 0000 0000 0000 8883 8137 f2b0 103a
00000370: 70f8 3d3b 8883 8138 f58d da38 0000 0000
00000380: 0000 0000 c19b 8939 f51a 343b 8df3 263a
00000390: b998 083a f720 3639 0000 0000 0000 0000
000003a0: 5d23 8c3a 6854 473b e5b2 263b 8c46 2d3b
000003b0: bae2 7639 0000 0000 0000 0000 e1a4 8c3a
000003c0: 27d4 313b 7299 333b aa35 123b d7ee fa38
000003d0: 0000 0000 0000 0000 0000 0000 0000 0000
000003e0: 0000 0000 0000 0000 0000 0000 0000 0000
000003f0: 0000 0000 0000 0000 0000 0000 0000 0000
0.0 0.0 0.0 0.0 0.0 0.0 0.0 0.0
0.0 1.5439247e-05 0.0010382901 0.00067160727 1.929906e-05 0.0 0.0 3.859812e-06
0.001725347 0.002478006 0.002995213 0.0006638876 0.0 0.0 0.00012351398 0.0028755607
0.00058669137 0.0021074698 0.0011888251 0.0 0.0 0.00037440174 0.003138024 0.00016983172
0.0017523661 0.0012621626 0.0 0.0 0.0006831867 0.002759768 0.000104214916 0.001845003
0.001011271 0.0 0.0 0.000941794 0.0021808052 8.491586e-05 0.0023467746 0.00077582215
0.0 0.0 0.0011347869 0.0019453596 0.0001003551 0.0028909997 0.00045931758 0.0
0.0 0.0011502263 0.0022039637 0.00045159797 0.0029681947 0.00016211209 0.0 0.0
0.0006214297 0.0029566155 0.0023158966 0.0018334234 3.859812e-06 0.0 0.0 2.3158871e-05
0.0010846086 0.0015748121 2.7018681e-05 0.0 0.0 0.0 0.0 0.0
0.0 0.0 0.0 0.0 0.0 0.0 0.0 0.0
0.0 0.0 0.0 0.0 0.0 1.929906e-05 0.00026632703 0.00085301837
0.000108074724 0.0 0.0 7.719624e-06 0.00059827085 0.0024278292 0.0022232623 0.00014281303
0.0 0.0 1.929906e-05 0.00060599047 0.0026246768 0.0018025445 3.859812e-05 0.0
0.0 1.1579436e-05 0.0005596727 0.0018797418 0.0014281371 7.719624e-06 0.0 0.0
0.0 8.491586e-05 0.0023815122 0.0008028408 0.0 0.0 0.0 7.719624e-06
4.6317742e-05 0.0028678412 0.00048633627 0.0 0.0 0.0 3.859812e-06 0.0001968504
0.0030299507 0.00037826155 0.0 0.0 0.0 2.3158871e-05 0.00035510267 0.0027674874
0.00038984098 3.859812e-05 0.0 0.0 0.00014667284 0.00104601 0.0025359024 0.0007295044
6.175699e-05 0.0 0.0 0.00020457002 0.0019260603 0.0021615063 0.0015014745 5.7897174e-05
0.0 0.0 0.0 0.0 0.0 0.0 0.0 0.0
0.0 0.0 0.0 0.0 0.0 0.0 0.0 0.0
0.0 4.6317742e-05 0.0013856784 0.00084143894 1.1579436e-05 0.0 0.0 3.859812e-05
0.002010976 0.002493445 0.0030145117 0.00133936 0.0 0.0 0.00012351398 0.0015323536
0.00052879425 0.0020071163 0.0015863917 0.0 0.0 9.2635484e-05 0.0006330091 0.00026246722
0.0021306283 0.0012544428 0.0 0.0 1.5439247e-05 0.00011579435 0.00024316814 0.0033889078
0.00028948588 0.0 0.0 0.0 6.5616805e-05 0.0018797418 0.0016249904 1.1579436e-05
0.0 0.0 1.5439247e-05 0.0005519531 0.0028987192 6.175699e-05 0.000104214916 0.0
0.0 0.00026246722 0.0027481888 0.00063686894 0.0005210746 0.00017369153 0.0 0.0
0.0010691691 0.00304153 0.002543622 0.0026439754 0.0002354485 0.0 0.0 0.001073029
0.002713451 0.0027404693 0.0022309818 0.00011965416 0.0 0.0 0.0 0.0
0.0 0.0 0.0 0.0 0.0 0.0 0.0 0.0
