LeNet2.pth (torch, 253197 bytes, 18 tensors)

conv1.weight f4 [6, 1, 5, 5]
0	0x3e8babf9	0.27279642
1	0x3e93e590	0.2888608
2	0x3e88b378	0.26699424
3	0x3e83d679	0.25749567
4	0x3e97d871	0.2965732
5	0xbd6d2199	-0.05789337
6	0x3d5d9c51	0.054104153
7	0x3e111e58	0.14171731
8	0x3df90cf3	0.12160673
9	0x3e53ebc2	0.20695403
10	0xbd4d3f07	-0.050108936
11	0xbcdee051	-0.027206572
12	0xbe17fb01	-0.14841844
13	0xbe1b7caf	-0.15184282
14	0x3d11ee6f	0.03562778
15	0xbea43a03	-0.3207551
16	0xbe84097d	-0.2578849
17	0xbe0647d2	-0.13113335
18	0xbe74e499	-0.23915328
19	0xbe254241	-0.16138555
20	0xbdfc8df0	-0.1233176
21	0xbd97794f	-0.07396185
22	0xbe62ac95	-0.22136147
23	0x3ce54bb3	0.027990198
24	0xbdcdc259	-0.100468345
25	0xbd9b09f6	-0.07570259
26	0xbc941ffd	-0.01808166
27	0xbe2f2210	-0.17102838
28	0xbe2d92dd	-0.16950555
29	0xbdb906b3	-0.09034481
30	0x3e83b58d	0.2572445
31	0xbdd277ce	-0.10276757
32	0xbe3a9abe	-0.18223092
33	0xbcd36649	-0.02580561
34	0xbe6f4631	-0.2336662
35	0x3e13ffe2	0.1445308
36	0x3e656392	0.22401264
37	0x3d01148a	0.03151373
38	0xbe788029	-0.24267639
39	0x3d7295a0	0.059224725
40	0x3dd6a516	0.104807064
41	0x3ed56a96	0.4168288
42	0x3e9fda34	0.31221163
43	0x3c29c269	0.010361292
44	0xbd98ba20	-0.074573755
45	0xbe4f48bf	-0.20242594
46	0x3cea3d93	0.028593814
47	0x3e560575	0.20900519
48	0x3e319a00	0.17343903
49	0x3b894f22	0.0041903416
50	0x3d78c190	0.06073147
51	0x3d849f3d	0.06475685
52	0x3e33a961	0.17545082
53	0x3e8d368f	0.27580687
54	0xbd2865a8	-0.041112572
55	0xbb99c861	-0.0046930765
56	0x3e243303	0.16035084
57	0x3e4dbd05	0.20091636
58	0x3e22d4d8	0.15901506
59	0x3d5cc01e	0.053894155
60	0x3e1131e6	0.14179191
61	0x3e7ff86c	0.24997109
62	0x3e4924cd	0.19642945
63	0x3c293001	0.010326386
64	0xbda02cbd	-0.07821033
65	0x3ea092ce	0.31362003
66	0x3e1270f4	0.143009
67	0x3db1708d	0.086640455
68	0xba3dc3a8	-0.0007238933
69	0xbdd7d071	-0.10537804
70	0x3f0a9ea9	0.54148346
71	0x3e470fea	0.19439664
72	0x3decfa9f	0.1157124
73	0x3ca9c2f7	0.02072285
74	0xbea2091c	-0.31647575
75	0xbcd5517b	-0.02603983
76	0xbd508b97	-0.050914373
77	0x3c9c75ef	0.019099204
78	0xbc3121a7	-0.010811246
79	0x3e74d291	0.2390845
80	0xbe8609cc	-0.2617935
81	0xbea80dbd	-0.3282298
82	0xbc7a630a	-0.015282402
83	0x3db8d5c7	0.0902515
84	0x3e7674ab	0.24067943
85	0xbe8ba6a6	-0.2727558
86	0xbdbdc6f0	-0.0926646
87	0xbe3c7d64	-0.18407208
88	0x3d8a5e5a	0.067562774
89	0x3eabac47	0.33529875
90	0xbeb8c621	-0.3608866
91	0xbe16d58f	-0.14729904
92	0xbdd98965	-0.10621909
93	0x3d6dc25d	0.058046687
94	0x3e80d587	0.25162908
95	0xbe11a655	-0.14223607
96	0xbe0dce55	-0.1384824
97	0xbe0081ec	-0.12549561
98	0xbd0aa20a	-0.03384594
99	0x3dd79eac	0.10528311
100	0xbe94ac80	-0.29037857
101	0x3dde1edb	0.10845729
102	0x3e20f8b1	0.15719868
103	0xbb02b1af	-0.0019942333
104	0x3e3e6a98	0.1859535
105	0xbe9bf1bf	-0.30457875
106	0xbe9973ca	-0.29971153
107	0xbdbf40ac	-0.09338507
108	0x3d99fd5e	0.07519029
109	0x3d9dd4fa	0.07706638
110	0xbdb969b1	-0.09053362
111	0xbece137d	-0.40249243
112	0xbeb94e62	-0.36192614
113	0xbe72d390	-0.23713517
114	0xbc9a1904	-0.018810757
115	0x3dc852e6	0.097814366
116	0xbd148b48	-0.03626564
117	0xbe5ba937	-0.21451269
118	0xbe82f8d8	-0.25580478
119	0xbe70e2eb	-0.23524062
120	0x3e255809	0.16146864
121	0xbcc600d2	-0.024170313
122	0x3dbd3850	0.092392564
123	0xbd80f74a	-0.06297167
124	0xbe85f076	-0.2616002
125	0xbec482a9	-0.38380936
126	0xbe5651a7	-0.20929585
127	0xbecb8f36	-0.397577
128	0xbea3811d	-0.31934443
129	0xbe68664d	-0.22695275
130	0xbdd9ac0f	-0.10628521
131	0xbe721b0f	-0.23643135
132	0xbdccc149	-0.09997804
133	0xbdc4e329	-0.0961364
134	0xbddcf4e1	-0.107888944
135	0xbdacc8d9	-0.08436746
136	0x3d0da474	0.034580663
137	0x3cf58d54	0.029974617
138	0x3c97cd90	0.018530637
139	0x3e5913d9	0.21198978
140	0xbd50d73d	-0.050986517
141	0x3d75ff54	0.060057953
142	0x3e33d455	0.17561467
143	0x3e8e19a3	0.27753934
144	0x3e29ceca	0.1658279
145	0xbd5710c3	-0.05250622
146	0x3e41883b	0.18899624
147	0x3d9ae2c1	0.07562781
148	0x3d314caa	0.043286003
149	0x3bb86282	0.0056269774

conv1.bias f4 [6]
0	0x3dc39b22	0.095510736
1	0x3ce6238c	0.028093122
2	0xbe1640b5	-0.14673121
3	0xbccfdca1	-0.025373759
4	0x3e877cad	0.26462308
5	0x3d0ab004	0.033859268

bn1.weight f4 [6]
0	0x3f618b75	0.8810342
1	0x3f568932	0.83803093
2	0x3f2d1c61	0.6762143
3	0x3f8d9dbe	1.1063764
4	0x3fc2db83	1.522324
5	0x3f795f42	0.97410977

bn1.bias f4 [6]
0	0xbdc4eddd	-0.09615681
1	0xbe9bf567	-0.30460665
2	0xbf0b1aa2	-0.54337513
3	0xbe9ef527	-0.3104641
4	0xbd8ea5b4	-0.06965199
5	0xbe551972	-0.20810488

bn1.running_mean f4 [6]
0	0x3d803fb7	0.06262153
1	0x3daf017a	0.085452035
2	0x3e38fbde	0.1806483
3	0xbe114cbb	-0.14189427
4	0xbcbc7720	-0.023006022
5	0xbdb03b6a	-0.08605082

bn1.running_var f4 [6]
0	0x40097d3c	2.1482687
1	0x3f875aaa	1.0574543
2	0x40b9b51b	5.8033576
3	0x403e212f	2.9707754
4	0x406ddbd4	3.7165422
5	0x4033ff85	2.8124707

conv2.weight f4 [16, 6, 5, 5]
0	0xbe69f7aa	-0.22848383
1	0xbea9f539	-0.33194903
2	0xbe043892	-0.12912205
3	0x3956ced4	0.0002048568
4	0x3dbee347	0.093206935
5	0xbe6399d4	-0.2222665
6	0xbe486008	-0.19567883
7	0xbd91369d	-0.07090495
8	0x3dc11aac	0.094289154
9	0x3dd5fccc	0.10448608
10	0xbdcec8c3	-0.10096886
11	0xbd9441aa	-0.07239087
12	0x3d8952f8	0.06705278
13	0x3e2536da	0.16134205
14	0x3dd451e7	0.10367184
15	0xbcacf7e1	-0.021114292
16	0x3bae8202	0.0053255567
17	0x3c5b9829	0.013402977
18	0x3dc5c78f	0.096572034
19	0x3e07c6d7	0.13259445
20	0xbd554e38	-0.05207655
21	0xbd2159c0	-0.039392233
22	0x3d317ad4	0.04333003
23	0x3db3e6f5	0.08784286
24	0x3e50565c	0.20345443
25	0xbe17049b	-0.1474785
26	0xbe630012	-0.22167996
27	0xbe34fc15	-0.17674287
28	0xbe184663	-0.148706
29	0xbe65d82d	-0.22445746
30	0xbddddaf3	-0.10832777
31	0xbd7d1433	-0.06178684
32	0xbdc39fcd	-0.09551964
33	0xbda781ef	-0.0817908
34	0xbd267f88	-0.040648967
35	0xbd7e346a	-0.062061705
36	0xbe20e5ba	-0.15712634
37	0xbe18a3c5	-0.14906223
38	0xbd5e0acb	-0.05420951
39	0xbd651019	-0.055923555
40	0xbe25252c	-0.16127461
41	0xbe2fe680	-0.17177773
42	0xbd68a819	-0.056800935
43	0xbd7c84bf	-0.061650034
44	0x3e363e39	0.17797174
45	0xbe54db58	-0.20786798
46	0xbdd0160c	-0.10160455
47	0xbd4ed4f2	-0.05049605
48	0xbd057039	-0.032577727
49	0x3dcf2ccb	0.101159655
50	0xbe2b2bc7	-0.16715918
51	0x3dc9a0f0	0.098451495
52	0x3e5abe33	0.21361618
53	0x3e1da9d1	0.15396811
54	0x3df7a4df	0.120919935
55	0xbda34e63	-0.079739355
56	0x3e4dbad8	0.20090806
57	0x3e02c7ed	0.12771578
58	0x3d4a61da	0.049409725
59	0xbd7c51b4	-0.061601356
60	0x3e1989b7	0.1499394
61	0x3e399953	0.18124895
62	0x3dd96af2	0.10616101
63	0x3ce2b9db	0.027676513
64	0xbdba06cc	-0.09083328
65	0x3dbe597d	0.09294412
66	0x3d5ca098	0.05386409
67	0x3c9c4978	0.019078001
68	0x3c9881d1	0.018616589
69	0xbe12dac0	-0.14341259
70	0x3dd8f470	0.10593498
71	0x3d4fd9a4	0.050744668
72	0xbdd6ef2c	-0.10494837
73	0xbe0bebe6	-0.13664207
74	0xbe9b732d	-0.3036131
75	0xbd171038	-0.0368807
76	0x3b97c968	0.004632164
77	0xbdcef81b	-0.10105916
78	0xbd9244a2	-0.07141997
79	0xbd36c78b	-0.044623893
80	0x3d355b82	0.04427672
81	0x3d0f0eff	0.03492641
82	0x3e033250	0.12812161
83	0x3d9b46a9	0.07581837
84	0xbc6e6672	-0.014550792
85	0x3d2b8846	0.041878007
86	0x3d4045f8	0.046941727
87	0x3d9bd37b	0.07608696
88	0xbd01c33d	-0.031680334
89	0xbd8ce145	-0.06878904
90	0x3da729ae	0.08162247
91	0xbd4508e3	-0.04810418
92	0x3d7fb796	0.06243094
93	0xbe0b7cb0	-0.13621783
94	0xbea303a0	-0.31838703
95	0x3d50719f	0.050889608
96	0xbdb9d9b3	-0.09074726
97	0xbdfb0073	-0.12255945
98	0xbe654073	-0.22387867
99	0xbf019ca1	-0.5062962
100	0x3deea18c	0.11651906
101	0x3d3ff3c5	0.046863336
102	0xbd29417a	-0.04132221
103	0xbdcce90e	-0.10005389
104	0x3d6e5676	0.058187924
105	0x3cdd394e	0.027004864
106	0xbd81b9ad	-0.06334243
107	0xbe1c35b7	-0.15254866
108	0xbd0a8d7d	-0.03382634
109	0x3dd49737	0.103804044
110	0xbe3b109b	-0.18268053
111	0xbe935460	-0.2877531
112	0xbdbe416f	-0.09289824
113	0x3ceebba9	0.029142218
114	0x3e2ce160	0.16882849
115	0xbecbcdf8	-0.3980558
116	0xbe4be3b1	-0.19911076
117	0x3e3dcb86	0.1853467
118	0x3ea86458	0.32889056
119	0x3e9a4ef2	0.30138355
120	0xbe8aa8e8	-0.2708199
121	0x3d6cdc30	0.057827175
122	0x3e937cfa	0.28806287
123	0x3eac7394	0.3368193
124	0x3e9b0f67	0.3028519
125	0x3e3dc17d	0.18530841
126	0x3e6e8605	0.23293312
127	0x3e2b3d3d	0.1672258
128	0x3e6a6544	0.22890192
129	0x3eb0bca0	0.3451891
130	0x3e002bc8	0.12516701
131	0xbc8ae166	-0.016953181
132	0x3e1066d8	0.14101732
133	0x3e101a3e	0.1407251
134	0x3e2b9c34	0.16758806
135	0x3e6a08e0	0.22854948
136	0x3e0cb341	0.13740255
137	0x3e2669c8	0.1625129
138	0x3e5c92f1	0.21540429
139	0xbdbe8c5c	-0.09304115
140	0x3e554043	0.20825295
141	0x3cc53594	0.0240734
142	0x3cfdd83d	0.0309869
143	0x3cb1e3b1	0.021715017
144	0x3e56b7ba	0.20968524
145	0xbd2e9898	-0.042625993
146	0xbdeee61a	-0.11664982
147	0xbd1be69b	-0.03806172
148	0x3e2eea90	0.17081666
149	0xbce76ae1	-0.028249206
150	0xbbd5b736	-0.0065220846
151	0x3d3e5e5b	0.046476703
152	0x3c08c456	0.008347591
153	0xbd913e80	-0.07091999
154	0xbc03a5b4	-0.008035112
155	0x3e93587a	0.2877844
156	0x3dc32156	0.09527843
157	0xbcbad62b	-0.022807201
158	0xbe07002b	-0.13183658
159	0x3d0f68a3	0.0350119
160	0x3edfd3fe	0.43716425
161	0xbdb44c7a	-0.08803649
162	0xbef15fab	-0.471433
163	0xbe40eb10	-0.18839669
164	0x3e300d0a	0.17192474
165	0x3dd32671	0.103100665
166	0xbe65e53d	-0.22450729
167	0xbd9a8cd1	-0.0754639
168	0x3e0ba10f	0.13635658
169	0x3e1c9ff5	0.15295394
170	0xbd41d5cd	-0.047323037
171	0xbda2f6c6	-0.079572245
172	0x3d4d58e5	0.050133605
173	0x3d89d585	0.06730179
174	0xbd921931	-0.07133711
175	0x3d7d4342	0.06183172
176	0x3db5618c	0.08856496
177	0xbdf90596	-0.121592686
178	0xbe87945b	-0.26480374
179	0xbe325343	-0.17414574
180	0x3e8daa41	0.27668956
181	0xbd1cdfc4	-0.038299337
182	0xbee25cb2	-0.44211346
183	0xbea310fb	-0.31848893
184	0xbd657a99	-0.05602512
185	0x3e24de71	0.1610048
186	0xbe46c470	-0.19410872
187	0xbe9f6cd1	-0.31137708
188	0x3d2885fe	0.04114341
189	0x3e2cc2db	0.16871206
190	0xbe027eb3	-0.12743644
191	0xbdfc4360	-0.12317538
192	0xbd1e9130	-0.03871268
193	0x3e13dbf4	0.14439374
194	0x3d5246fd	0.05133723
195	0xbd546655	-0.051855404
196	0xbbeb00be	-0.0071717193
197	0x3d924e34	0.07143822
198	0xbd7fc931	-0.06244773
199	0xbe078162	-0.1323295
200	0x3e3613ac	0.17780942
201	0x3e49a6fc	0.19692606
202	0x3bbd9000	0.0057849884
203	0xbd22e63e	-0.039770357
204	0x3bff7919	0.0077964184
205	0xbd95c1ec	-0.07312378
206	0x3cd67e8a	0.026183385
207	0xbdd69883	-0.10478308
208	0x3d788c10	0.06068045
209	0x3d9bd195	0.07608334
210	0xbd8a7e60	-0.06762385
211	0xbd46a8b1	-0.04850072
212	0x3c644350	0.013932064
213	0x3e07c953	0.13260393
214	0xbb503d62	-0.0031774868
215	0xbabfeaeb	-0.0014642155
216	0xbd6dc976	-0.058053456
217	0x3e01c324	0.12672096
218	0xbcc9e698	-0.024646088
219	0xbda4ee5a	-0.080532745
220	0xbdd3a350	-0.10333884
221	0x3da40673	0.080090426
222	0x3e18a4a1	0.14906551
223	0x3cc63d3f	0.024199126
224	0x3c880851	0.016605528
225	0x3ec4a697	0.38408348
226	0x3ea9e824	0.33184922
227	0x3e659675	0.22420676
228	0x3d9c7810	0.076400876
229	0x3d3acbbe	0.04560446
230	0x3e805c48	0.25070405
231	0xbcfcf42f	-0.030878155
232	0xbe1edf6e	-0.15514919
233	0xbde781ed	-0.11304078
234	0xbd055122	-0.032548077
235	0xbe5ad2ba	-0.21369448
236	0xbeb0bc66	-0.34518737
237	0x3bda7e54	0.0066678915
238	0x3dd520af	0.104066245
239	0x3d64ec01	0.055889133
240	0xbeaee363	-0.34157857
241	0x3cdacd67	0.026709272
242	0x3dfaa9ed	0.12239442
243	0xbb171f2f	-0.0023059358
244	0xbd9d10c9	-0.07669217
245	0xbd191875	-0.03737684
246	0x3dd66bf6	0.10469811
247	0x3c861765	0.016368577
248	0xbd40d218	-0.04707536
249	0xbd8def45	-0.06930403
250	0xbdba8af1	-0.09108532
251	0xbcbe09d1	-0.02319804
252	0x3a562b14	0.0008169871
253	0xbc2fc150	-0.010727242
254	0x3dfaf31a	0.12253399
255	0x3d699a95	0.057032187

conv2.bias f4 [16]
0	0x3b46c9d3	0.00303327
1	0xbd405714	-0.046958044
2	0x3da6d2c7	0.08145671
3	0xba265e1e	-0.0006346422
4	0xbd9bacac	-0.07601294
5	0xba28ac64	-0.00064343796
6	0xbe1da15c	-0.15393585
7	0xbd66ea81	-0.056375984
8	0xbcf23f52	-0.02957121
9	0x3d133561	0.035939578
10	0xba295e46	-0.0006460886
11	0xbcf61394	-0.030038632
12	0x3bc0c542	0.00588289
13	0x3ddb3fcd	0.107055284
14	0xbe0f971e	-0.1402249
15	0x3c99dcd1	0.018782051

bn2.weight f4 [16]
0	0x3f82e1b2	1.0225127
1	0x3f788189	0.97072655
2	0x3f74118f	0.9533929
3	0x3f881efc	1.0634456
4	0x3f41b446	0.756657
5	0x3f7b72a5	0.9822181
6	0x3f91ee88	1.1400919
7	0x3f6793f7	0.9046015
8	0x3f7b74b6	0.9822496
9	0x3f7255a8	0.9466195
10	0x3f7a27e9	0.9771715
11	0x3f7e6176	0.99367464
12	0x3f8ff9f3	1.1248153
13	0x3f85d2ad	1.0454918
14	0x3f79481b	0.9737565
15	0x3f7e4996	0.99331033

bn2.bias f4 [16]
0	0xbf398a5d	-0.7247675
1	0xbf388cc4	-0.7208979
2	0xbf465a65	-0.7748168
3	0xbf28a24d	-0.6587265
4	0xbf00de9a	-0.50339663
5	0xbf5f93a9	-0.87334687
6	0xbf27be8b	-0.6552512
7	0xbed4db5f	-0.41573617
8	0xbf28c2f2	-0.6592246
9	0xbf252900	-0.64515686
10	0xbf4fd905	-0.8119052
11	0xbf167b59	-0.58781964
12	0xbf29c994	-0.6632321
13	0xbf202f33	-0.6257202
14	0xbf28a34c	-0.6587417
15	0xbf2bb7f4	-0.67077565

bn2.running_mean f4 [16]
0	0x3d65e710	0.05612856
1	0x3e660b12	0.2246516
2	0xc0060557	-2.094076
3	0xc014a412	-2.322514
4	0xbf0dc4ed	-0.5537861
5	0xc04210ba	-3.032271
6	0xc001654e	-2.0218081
7	0x3d8bfd3e	0.068354115
8	0xbf81c289	-1.0137492
9	0x3fe3f7d0	1.7810001
10	0xbfc962ad	-1.5733238
11	0xbf834ff5	-1.0258776
12	0xbf7723d9	-0.96539074
13	0x3eb4fbd7	0.3534839
14	0xc00423df	-2.0646894
15	0xbfd3026a	-1.6485112

bn2.running_var f4 [16]
0	0x404a821a	3.1641908
1	0x3f952866	1.1652954
2	0x40267434	2.6008425
3	0x402f39ea	2.7379098
4	0x3ffd5cf7	1.9793996
5	0x3fc0d4f9	1.5064994
6	0x3ffac404	1.9591069
7	0x4049ebe3	3.1550224
8	0x4058cf67	3.3876588
9	0x3fc855ae	1.5651147
10	0x402be58a	2.685885
11	0x4048018c	3.1250944
12	0x401303bb	2.2971027
13	0x4071ba61	3.7770007
14	0x3feef318	1.8667936
15	0x3fc0f320	1.5074196

fc1.weight f4 [120, 400]
0	0xbcb43d15	-0.022001782
1	0xbdb777a4	-0.089583665
2	0xbda2f5f3	-0.07957067
3	0x3df6e33e	0.12055062
4	0x3e7caa4c	0.24674338
5	0x3df8c440	0.12146807
6	0xbcfdf5d7	-0.031001015
7	0xbcbe1bc3	-0.023206597
8	0x38bb8b64	8.9428184e-05
9	0x3d92b41d	0.0716326
10	0x3e8852e7	0.2662575
11	0x3d399126	0.04530444
12	0x3cdc32d5	0.026879707
13	0x3db0b75f	0.08628725
14	0x3dcde8c8	0.10054165
15	0x3e626adf	0.2211108
16	0x3e6f1e7a	0.2335147
17	0x3be65543	0.007029207
18	0x3d5ea19b	0.054353338
19	0x3e1a5eac	0.15075177
20	0x3d2f8b1b	0.04285727
21	0x3d8c1d45	0.0684152
22	0x3da93ba0	0.08263326
23	0x3b414041	0.0029487761
24	0xbb1de4da	-0.0024092705
25	0x3d7592d5	0.059954483
26	0x3ce17964	0.027523704
27	0x3e2a6018	0.1663822
28	0x3ddeb9f2	0.1087531
29	0x3e4ea37c	0.20179552
30	0x3dd77ea6	0.10522203
31	0x3cb43102	0.021996025
32	0x3e1d300d	0.15350361
33	0x3d400901	0.046883587
34	0x3e531b7a	0.2061595
35	0x3dc9ecca	0.09859617
36	0x3e21eadb	0.15812247
37	0x3d655743	0.055991422
38	0x3d8725bf	0.06598996
39	0x3db999c8	0.090625346
40	0x3dc5adf6	0.09652321
41	0x3d4a6b74	0.04941888
42	0xbe241e43	-0.16027169
43	0xbac4dac7	-0.0015018814
44	0x3d972f85	0.073821105
45	0x3d6c7848	0.057731897
46	0xbc95003a	-0.018188585
47	0xbd677a66	-0.056513213
48	0x3b3833ea	0.0028107115
49	0x3db2a20d	0.08722315
50	0xbebf5e85	-0.373768
51	0xbe4bcf27	-0.19903241
52	0xbe8885a0	-0.26664448
53	0xbe408242	-0.1879969
54	0xbe5b7c54	-0.21434146
55	0xbd37f1aa	-0.044908203
56	0xbd35c586	-0.044377826
57	0x3c93a34f	0.018022208
58	0x3d1d7633	0.0384428
59	0x3d66b0c4	0.05632092
60	0x3e072d6f	0.13200925
61	0x3e16abca	0.1471397
62	0x3e0010f2	0.12506464
63	0x3e07dbeb	0.13267486
64	0x3e53a9c2	0.20670226
65	0xbdac59ee	-0.0841559
66	0x3e2645fb	0.16237633
67	0x3e638265	0.2221771
68	0x3e7b9f00	0.24572372
69	0x3e81d9e5	0.25361553
70	0xbdc056db	-0.09391566
71	0x3e7e8413	0.2485507
72	0x3ec0ce80	0.37657547
73	0x3e9f810a	0.31153136
74	0x3e768421	0.2407384
75	0x3d160773	0.036628198
76	0x3cc3b6c1	0.023890855
77	0xbd0846eb	-0.033270758
78	0xbdf51d16	-0.11968438
79	0xbe969468	-0.294101
80	0xbbcb7124	-0.006208556
81	0x3d902766	0.07038765
82	0x3ddd07ed	0.10792527
83	0x3d4d7e57	0.050169315
84	0xbc8524d3	-0.01625291
85	0x3cafd6ef	0.021464793
86	0x3e62be13	0.2214282
87	0x3cbc7a89	0.023007648
88	0xbd3d88a8	-0.046272904
89	0x3d1cbdfa	0.038267113
90	0xbd922ed3	-0.07137837
91	0x3e65f10c	0.22455233
92	0xbc81be13	-0.015837705
93	0xbe62b257	-0.22138344
94	0xbe6dd31e	-0.23225066
95	0xbe5b8827	-0.21438657
96	0xbd1590a3	-0.03651489
97	0xbe295e9c	-0.16539997
98	0xbea861f9	-0.32887247
99	0xbe925bce	-0.28585666
100	0xbdb67afc	-0.08910176
101	0xbe00bf5f	-0.12573002
102	0xbe3aab98	-0.1822952
103	0xbe362f68	-0.17791522
104	0xbca9f6f9	-0.020747649
105	0xbc77892e	-0.01510839
106	0xbdced8ac	-0.10099921
107	0xbea88bc7	-0.32919142
108	0xbe553ba2	-0.2082353
109	0xbdb5cecc	-0.08877334
110	0xbdccf718	-0.10008067
111	0x3cb11e89	0.021621006
112	0x3b8fec0c	0.0043921527
113	0xbd9c9585	-0.07645706
114	0xbddec0e4	-0.10876635
115	0xbdf4afb8	-0.11947578
116	0xbdcc66a8	-0.099805176
117	0xbdd95208	-0.10611349
118	0xbe114e3c	-0.1419
119	0xbd33f06b	-0.043930452
120	0xbda7c5c0	-0.08192015
121	0xbbaaf2c3	-0.0052169277
122	0x3dc9761c	0.09836981
123	0x3da3bc83	0.0799494
124	0x3d9f857a	0.077891305
125	0x3c5a28a1	0.013315351
126	0x3cb0f0bd	0.021599168
127	0xbd3836a4	-0.044973984
128	0xbe07fc0a	-0.13279739
129	0xbe0f64ed	-0.14003344
130	0xbc776762	-0.015100332
131	0xbd657ffa	-0.05603025
132	0x3d860905	0.06544689
133	0xbd4d9576	-0.050191365
134	0xbd442869	-0.0478901
135	0x3d1f5ecc	0.038908765
136	0x3db1b909	0.08677871
137	0x3de14158	0.109987915
138	0x3df12a4d	0.11775646
139	0x3dfab711	0.122419484
140	0xbd7673fa	-0.060169198
141	0x3ba714fe	0.005098938
142	0xbd9f6d66	-0.07784538
143	0x3db8fda7	0.09032755
144	0x3d54287e	0.05179643
145	0xbe676e22	-0.22600606
146	0xbe493c32	-0.19651869
147	0xbe7dfa1a	-0.24802437
148	0xbe825f27	-0.2546322
149	0xbea881cc	-0.32911527
150	0xbdf09072	-0.11746301
151	0xbe71d2f7	-0.23615633
152	0xbe17ff6f	-0.14843534
153	0xbd6b3cf6	-0.057431184
154	0xbe96f34e	-0.29482502
155	0xbe2a359a	-0.1662201
156	0xbdeebc81	-0.11657048
157	0xbdd5a613	-0.10432067
158	0xbd75d9dc	-0.06002222
159	0xbe420ce7	-0.18950234
160	0xbd36d69d	-0.044638265
161	0xbc7c5fc5	-0.015403693
162	0xbd746584	-0.059667125
163	0x3ca828f3	0.020527339
164	0xbe1664f4	-0.14686948
165	0x3d34a8d2	0.044106312
166	0xbd54d2d4	-0.051958874
167	0xbd7cf103	-0.061753284
168	0x3caa7162	0.020806018
169	0xbdb14c72	-0.08657159
170	0xbe489a6a	-0.19590154
171	0xbd8922e7	-0.0669611
172	0xbc323608	-0.01087714
173	0x3cd7bac3	0.026334172
174	0xbd49fed1	-0.049315277
175	0xbd01f61f	-0.03172886
176	0xbda2fab6	-0.079579756
177	0xbe311faa	-0.17297235
178	0xbeab1aff	-0.33419034
179	0xbecf1f4b	-0.40453562
180	0xbd76f8cd	-0.06029587
181	0xbbf11824	-0.007357614
182	0x3d24837d	0.04016446
183	0xbe5e4de3	-0.21709399
184	0xbea4b3c6	-0.32168406
185	0x3d59de71	0.053190652
186	0x3d2d22f9	0.04226968
187	0x3be0d7b4	0.0068616513
188	0x3dac4d41	0.084131725
189	0x3e01bb8b	0.12669198
190	0x3e08965f	0.13338612
191	0x3dd76272	0.10516824
192	0x3e628a30	0.22123027
193	0x3e5e297d	0.21695514
194	0x3e6f1e9e	0.23351523
195	0x3ca4903b	0.020088306
196	0x3daecce4	0.085351735
197	0x3e04774c	0.12936133
198	0x3e28f8c9	0.16501154
199	0x3d705de6	0.0586833
200	0x3d9d8b88	0.07692629
201	0x3d830dc4	0.0639911
202	0xbd59f2b3	-0.05320997
203	0xbe14f224	-0.14545494
204	0xbe9cdb86	-0.30636233
205	0xbe48a010	-0.19592309
206	0xbd0e4e21	-0.03474248
207	0xbdad34b1	-0.08457316
208	0xbdd66f90	-0.104704976
209	0xbe16d0f6	-0.1472815
210	0xbddd495f	-0.1080501
211	0x3d5e5ce8	0.05428782
212	0x3cbe71d8	0.023247644
213	0xbe0f01a7	-0.13965474
214	0xbe1baf88	-0.15203679
215	0x3b0d7a42	0.0021587764
216	0xbd999ed8	-0.07501
217	0xbe3da7c1	-0.18521024
218	0xbe2dd79b	-0.16976778
219	0xbe93fd4b	-0.28904185
220	0x3e319350	0.17341352
221	0x3d3669fa	0.04453466
222	0xbe1faedb	-0.15594046
223	0xbe351a82	-0.17685893
224	0xbe3cf74e	-0.18453714
225	0x3e0941fd	0.13404079
226	0xbaa298cf	-0.001240516
227	0xbd77a517	-0.060460176
228	0xbe1cd15a	-0.15314236
229	0xbdc42e42	-0.095791355
230	0xbd273dcb	-0.040830415
231	0x3c19540c	0.009358417
232	0xbd99458e	-0.0748397
233	0xbe2e9e35	-0.17052539
234	0xbd8cf350	-0.06882346
235	0xbea3df45	-0.3200628
236	0xbe54c0ce	-0.20776674
237	0xbe65c909	-0.2243997
238	0xbe607cd5	-0.2192262
239	0xbde1026e	-0.109867916
240	0xbd9be730	-0.07612455
241	0xbe204228	-0.15650237
242	0xbe6d2616	-0.2315906
243	0xbe5bba92	-0.2145789
244	0xbe0d3214	-0.13788635
245	0x3dc04670	0.09388435
246	0x3d88cab4	0.066792876
247	0x3d1835a9	0.03716055
248	0xbce1f4dd	-0.02758258
249	0x3c7a36e0	0.015271872
250	0x3d722d60	0.059125304
251	0x3e837365	0.25673977
252	0x3ea68291	0.3252149
253	0x3e12ba8c	0.14328974
254	0x3e387e49	0.18016924
255	0x3d1671be	0.036729567

fc1.bias f4 [120]
0	0xbd96d09f	-0.0736401
1	0xbd912856	-0.070877716
2	0xbe199233	-0.14997177
3	0x3bc392cc	0.0059684273
4	0xbd11dabd	-0.035608996
5	0xbddee7de	-0.10884069
6	0xbd06b3b5	-0.032886226
7	0xbcde85a2	-0.02716333
8	0xbb8c1611	-0.0042750915
9	0x3d6a7d0c	0.05724816
10	0xbd90448c	-0.07044324
11	0xbbee343a	-0.0072694095
12	0x3cc4e426	0.02403457
13	0x3c452a6a	0.012034038
14	0x3c8ee933	0.017445182
15	0x3d23ab18	0.03995809
16	0x3d005368	0.031329542
17	0xbc14327d	-0.0090452405
18	0xbde84fbe	-0.113433346
19	0xb9ed2dc6	-0.00045238266
20	0xbb4dae7c	-0.0031384518
21	0xbd31a91d	-0.04337417
22	0xbd1a2196	-0.037629686
23	0xbde69336	-0.11258547
24	0xbc994d39	-0.01871358
25	0xbd436af9	-0.04770944
26	0x3c99b84a	0.018764634
27	0x3cd91273	0.026498055
28	0xbc4e9e12	-0.012610929
29	0xbcf11568	-0.029429153
30	0xbd79875f	-0.060920116
31	0xbc8edcc3	-0.017439252
32	0xbc1cccab	-0.009570281
33	0xbc86209a	-0.016372968
34	0xbd4b7eb9	-0.0496814
35	0xbd485ce7	-0.048916724
36	0xbc818bbc	-0.0158137
37	0x3dca0530	0.09864271
38	0x3c2b9cfa	0.010474438
39	0x3d2f92a3	0.042864453
40	0x3db70814	0.08937088
41	0xbd324cff	-0.04353046
42	0x3d8dd418	0.06925219
43	0xbcd4b9e1	-0.02596754
44	0xbd6978ce	-0.056999974
45	0xbaa4a9d6	-0.0012562822
46	0xbcc08a2e	-0.02350339
47	0xbd122550	-0.035680115
48	0xbe344a5d	-0.17606492
49	0xbafe738a	-0.0019413095
50	0x3d9628c9	0.07331998
51	0xbd807650	-0.06272566
52	0x3c79f7bd	0.015256819
53	0xbe0ef4fa	-0.13960639
54	0xbd95e1c7	-0.07318454
55	0x3d972833	0.07380714
56	0xbd93971a	-0.07206555
57	0xbba1d75b	-0.0049390025
58	0xbc643fa6	-0.013931191
59	0xbd1d1b42	-0.038356073
60	0x3cbaccde	0.022802766
61	0x3c204bb0	0.00978367
62	0xbdbad49d	-0.09122584
63	0xbc5b5e99	-0.013389253
64	0xbd069bbe	-0.03286337
65	0x3dd5336c	0.104101986
66	0xbdcff2c6	-0.10153727
67	0xbd395011	-0.045242373
68	0xbd85f79f	-0.065413706
69	0xbd987940	-0.074450016
70	0x3d795f75	0.06088205
71	0xba0b7fc7	-0.00053214695
72	0xbbe0744d	-0.0068498016
73	0x3d10f6bf	0.035391565
74	0xbdbaf70b	-0.09129151
75	0x3c08e9da	0.008356536
76	0xbde1013c	-0.109865636
77	0xbdf3b7e9	-0.119003125
78	0xbd79a073	-0.060944032
79	0x3d143837	0.036186423
80	0x3abc6414	0.0014373087
81	0x3dde560d	0.10856257
82	0x3da7dc49	0.08196313
83	0xbddb1a5a	-0.106983855
84	0xbbef4793	-0.0073022335
85	0xbe2a844f	-0.16652034
86	0x3af4b76e	0.0018670389
87	0xbda64a69	-0.08119661
88	0x3d99dac6	0.07512431
89	0x3cb0094b	0.021488806
90	0xbcc7cc62	-0.02438945
91	0xbd04aa48	-0.032388955
92	0x3d8526fa	0.06501575
93	0x3d55fd5e	0.052243583
94	0xbd392113	-0.045197558
95	0xbd4571a3	-0.048204076
96	0xbd491e7b	-0.049101334
97	0xbc29069b	-0.010316516
98	0xbd34b071	-0.04411358
99	0xbdcc919d	-0.09988711
100	0x3cf699ce	0.030102637
101	0xbdf90100	-0.12158394
102	0xbc0d435d	-0.008622018
103	0xbc7742f1	-0.015091644
104	0x3d7a8520	0.061162114
105	0x3cd9c673	0.026583886
106	0xbc0a01d0	-0.008423284
107	0xbd5e76dd	-0.054312576
108	0xbc3491fb	-0.011021133
109	0xbd0cee33	-0.034406852
110	0xbd1a07ad	-0.037604976
111	0xbd39f254	-0.045397118
112	0x3cac38b3	0.02102313
113	0x3c371149	0.011173555
114	0xbd26d1c8	-0.040727407
115	0x3cc91bd9	0.024549412
116	0xbd98f211	-0.074680455
117	0xbd02794a	-0.03185395
118	0x3d03b074	0.0321507
119	0xbd3f15ca	-0.04665164

fc2.weight f4 [84, 120]
0	0xbbaa38fd	-0.005194782
1	0xbee67f39	-0.45018938
2	0x3db5394f	0.08848821
3	0xbedb5088	-0.42834878
4	0x3d611825	0.054954667
5	0xbd810a85	-0.063008346
6	0x3de3d8b7	0.111253195
7	0x3ab4e774	0.0013801889
8	0x3d7c2be8	0.06156531
9	0x3e241730	0.1602447
10	0x3d6a56d2	0.057211705
11	0xbe99f246	-0.30067652
12	0xbd84dba6	-0.06487207
13	0x3d70e6ad	0.05881374
14	0xbdd33e49	-0.10314614
15	0x3d6db162	0.058030494
16	0x3db132d0	0.0865227
17	0x3d6e1974	0.058129743
18	0x3e1040e6	0.14087257
19	0xbe1953fd	-0.14973445
20	0xbc85b837	-0.016323192
21	0x3cde64cd	0.027147675
22	0x3db6fc5a	0.08934851
23	0xbe7960a6	-0.24353275
24	0xbeaeab2f	-0.34114978
25	0x3e10d950	0.14145398
26	0xbddde63a	-0.10834928
27	0xbe9dc93b	-0.3081759
28	0xbd08d55f	-0.03340661
29	0x3dc6b7f8	0.09703058
30	0xbc73af95	-0.014873405
31	0xbea88d16	-0.3292014
32	0x3d414088	0.047180682
33	0xbccd2ca7	-0.025045706
34	0xbd397cf9	-0.0452852
35	0x3d51011b	0.051026445
36	0xbeb62c00	-0.35580444
37	0xbd80ebc6	-0.0629497
38	0xbe78cff2	-0.24298075
39	0x3e5281cb	0.20557325
40	0x3d45698f	0.04819637
41	0x3d23708f	0.039902266
42	0x3d99f555	0.075174965
43	0x3bf4c452	0.0074696923
44	0xbebda4d7	-0.37039825
45	0xbd962513	-0.0733129
46	0x3dbcf608	0.09226614
47	0x3d918cea	0.07106955
48	0x3dcd7a16	0.10033052
49	0x3e3d9173	0.18512516
50	0xbe60e80d	-0.2196352
51	0x3dce49ef	0.100726955
52	0x3e0d2466	0.13783416
53	0xbd513cea	-0.051083483
54	0xbdac652b	-0.08417734
55	0x3dead462	0.1146629
56	0x3dca38a5	0.09874085
57	0x3da66993	0.081256054
58	0xbe7d53ec	-0.24739045
59	0x3d8a454c	0.067514986
60	0xbcd38153	-0.025818503
61	0xbd98fb01	-0.0746975
62	0x3e28294b	0.16422002
63	0xbe81b3ff	-0.2533264
64	0xbd30c6db	-0.043158393
65	0xbc9be15b	-0.019028356
66	0xbcfea774	-0.031085707
67	0xbe903dd1	-0.28172162
68	0x3c020cc4	0.007937614
69	0x3bd0bd11	0.0063701947
70	0x3da5b5d7	0.08091324
71	0x3d267921	0.04064286
72	0xbcfde0b2	-0.030990932
73	0x3d6aa48b	0.057285827
74	0xbeea7d82	-0.4579888
75	0x3d9556d2	0.0729195
76	0xbe2fe4db	-0.17177145
77	0x3c0edcfb	0.008719678
78	0xbe298cd7	-0.16557632
79	0xbe4fb112	-0.2028239
80	0x3e6df092	0.23236302
81	0x3da819bd	0.08208034
82	0x3dcdda7b	0.100514375
83	0x3d5ca101	0.053864483
84	0x3d3f4a2a	0.046701588
85	0xbe0b5aa7	-0.136088
86	0xbd0f01c8	-0.034913808
87	0x3e0649f1	0.13114144
88	0x3e8c912b	0.27454504
89	0xbdb37362	-0.08762242
90	0x3c84b531	0.01619968
91	0x3d12bdee	0.035825662
92	0x3a32a6b6	0.0006815003
93	0x3d9668cb	0.073442064
94	0xbeb05a0b	-0.34443697
95	0x3dac56bc	0.08414981
96	0x3dc76af3	0.09737196
97	0x3d2382f2	0.0399198
98	0xbda4ff8f	-0.080565564
99	0xbd540871	-0.051765863
100	0xbae6262d	-0.0017558985
101	0xbe318b49	-0.1733829
102	0x3d0f8c65	0.035046
103	0xbed612e4	-0.41811287
104	0xbdc6c60d	-0.09705744
105	0xbe199f57	-0.1500219
106	0x3dc21c4b	0.09478053
107	0xbbde59f9	-0.006785628
108	0xbdb48c77	-0.08815854
109	0x3e00fed5	0.1259721
110	0x3d30df44	0.043181673
111	0x3d4c4580	0.049870968
112	0x3da6ec04	0.08150485
113	0xbc7bde07	-0.01537276
114	0x3d9cd071	0.076569445
115	0x3d151289	0.03639463
116	0xbd7ce888	-0.061745197
117	0xbd2654f3	-0.040608358
118	0xbe4ead41	-0.20183279
119	0x3dd69125	0.10476903
120	0xbde2a659	-0.110668845
121	0xbbe6a849	-0.007039104
122	0xbead9175	-0.33900037
123	0x3d8e1b79	0.06938834
124	0xbd87f66c	-0.06638798
125	0x3e3fa236	0.18714222
126	0xbdac092e	-0.084001884
127	0xbd871df2	-0.065975085
128	0xbd9f3a0d	-0.07774744
129	0xbd9507a7	-0.0727685
130	0x3d5737df	0.052543517
131	0x3e1369c6	0.14395818
132	0xbd8c0c15	-0.06838242
133	0xbd30d378	-0.043170422
134	0xbd35e093	-0.044403624
135	0xbeef0f0d	-0.4669117
136	0x3b763cf7	0.003757296
137	0xbd168b46	-0.036753915
138	0xbe8e46a7	-0.27788278
139	0xbef4e28b	-0.4782909
140	0x3cccdefb	0.02500867
141	0x3d3ffdc2	0.04687286
142	0xbd516bd0	-0.05112821
143	0x3c4bce0b	0.012439261
144	0x3dff1ff2	0.12457265
145	0xbe343e02	-0.17601779
146	0x3df035bc	0.11728999
147	0x3e48f573	0.19624881
148	0xbd2ada6c	-0.04171221
149	0xbc53be79	-0.01292383
150	0xbda11bcf	-0.07866632
151	0x3c9471ac	0.01812061
152	0xbe0189e2	-0.12650254
153	0xbd14bbde	-0.036311977
154	0x3be214a6	0.006899434
155	0x3c6397a3	0.0138911335
156	0xbd8b2102	-0.06793405
157	0x3d2f6b69	0.042827044
158	0x3df570f8	0.11984438
159	0xbeafd8c5	-0.3434507
160	0xbeb4c6f8	-0.3530805
161	0x3e567ae1	0.20945312
162	0xbe6e9684	-0.23299605
163	0xbd8cf3f0	-0.06882465
164	0x3e39f89b	0.18161242
165	0x3de79b1e	0.11308883
166	0xbca8943e	-0.0205785
167	0x3d386d54	0.04502614
168	0x3dfa8bfb	0.122337304
169	0xbd35355d	-0.044240344
170	0xbd3a2d88	-0.04545358
171	0xbd7a22e8	-0.061068445
172	0xbe1d6607	-0.15370952
173	0x3de857dc	0.11344883
174	0x3db97e1e	0.09057258
175	0xbd1d8316	-0.03845509
176	0xbe926209	-0.2859042
177	0xbcf982ea	-0.030457933
178	0x3ab7f970	0.001403613
179	0x3c7f10a7	0.015567935
180	0xbdb9930e	-0.090612516
181	0xbbbbbf06	-0.005729559
182	0xbdc9fae2	-0.09862305
183	0xbd249dd9	-0.040189598
184	0x3c827df7	0.015929205
185	0xbd09735d	-0.033557285
186	0x3e03791b	0.12839167
187	0x3e93140e	0.28726238
188	0x3d812ac0	0.06306982
189	0x3d1bbd32	0.038022228
190	0xbb10e933	-0.0022111654
191	0x3d69fbf9	0.057125065
192	0xbd7601f8	-0.06006047
193	0x3c8a31fc	0.016869538
194	0x3e6d9290	0.2320044
195	0xbd374d14	-0.04475124
196	0x3c0d60cf	0.008629038
197	0x3e23bd03	0.15990071
198	0x3d96e6b0	0.07368219
199	0x3e7fab88	0.24967778
200	0xbeb141a9	-0.34620407
201	0xbee3e843	-0.4451314
202	0xbe446d7a	-0.19182387
203	0x3cc23b3f	0.023709891
204	0xbd56ca0f	-0.05243879
205	0x3d303ec6	0.043028615
206	0xbc6993ed	-0.01425646
207	0xbe601472	-0.218828
208	0xbeaf8e89	-0.34288433
209	0x3d83d741	0.06437541
210	0x3d8fb3b2	0.07016696
211	0x3c9d8cc5	0.019232163
212	0xbcc8b94f	-0.024502425
213	0x3d256ad6	0.04038509
214	0xbc5e1a08	-0.013556011
215	0xbee401c9	-0.44532612
216	0xbd719b57	-0.058986034
217	0x3de15104	0.11001781
218	0x3da2e910	0.079546094
219	0x3dfa99c6	0.12236361
220	0xbdcd7e8d	-0.10033903
221	0x3d2602ca	0.040530004
222	0x3dccb320	0.09995103
223	0x3e28148c	0.16414088
224	0xbe9a75bb	-0.30167946
225	0xbd2bc093	-0.0419317
226	0x3c46c731	0.012132452
227	0xbdac8b6a	-0.084250286
228	0xbd0f5c3e	-0.03500008
229	0xbc40efca	-0.01177592
230	0x3e108b13	0.14115553
231	0x3cccb056	0.024986427
232	0xbece743d	-0.40323058
233	0x3c8575ea	0.016291577
234	0x3dbb990b	0.0916005
235	0x3d441291	0.04786927
236	0xbd069d54	-0.032864884
237	0x3ca4facb	0.020139119
238	0x3d15b5eb	0.036550444
239	0xbc20f87d	-0.009824869
240	0x3d7617de	0.060081355
241	0xbe599fd4	-0.21252376
242	0xbd10ab9b	-0.035319906
243	0xbef56a7f	-0.47932813
244	0x3d6d7624	0.057973996
245	0xbc74a4b7	-0.014931849
246	0x3ce28d5b	0.027655294
247	0x3de69be0	0.112601995
248	0x3e102b1b	0.14078943
249	0x3dad8000	0.0847168
250	0xbd7b72b7	-0.061388697
251	0x3dd08a4a	0.101826265
252	0x3da55bb8	0.080741346
253	0x3dbfde16	0.093685314
254	0x3b6ac83b	0.0035824913
255	0xbf0e13ba	-0.5549885

fc2.bias f4 [84]
0	0x3e033b6d	0.12815638
1	0x3eaa37ed	0.33245793
2	0x3e3c5014	0.18389922
3	0x3e3ccfec	0.18438691
4	0x3ef48ba0	0.47762775
5	0x3e4cc198	0.19995725
6	0x3ea9417f	0.33057782
7	0x3e8e0c73	0.27743873
8	0x3eac75f6	0.33683747
9	0x3ec6e21a	0.38844377
10	0x3ec2000f	0.3789067
11	0x3ecc0bf4	0.3985287
12	0x3eb42186	0.35181826
13	0x3ed02b91	0.4065824
14	0x3eaa18a5	0.33221927
15	0x3dd82ff1	0.10556019
16	0x3deca3fc	0.11554715
17	0x3dfb5c6b	0.12273487
18	0x3efd0805	0.4942018
19	0x3df766d2	0.12080158
20	0x3ec7c3a7	0.39016458
21	0x3e270f5a	0.1631445
22	0x3eca3d5e	0.39499944
23	0x3e63359d	0.2218842
24	0x3e2b9ac1	0.16758253
25	0x3ea65845	0.3248922
26	0x3e5b5068	0.21417391
27	0x3d7556cf	0.05989724
28	0x3e8dbdcd	0.2768387
29	0xbd1d3b77	-0.03838679
30	0x3b50d74a	0.0031866604
31	0x3ec5cebc	0.38634288
32	0x3ea7162a	0.32634097
33	0x3de3019c	0.11084291
34	0xbcf09951	-0.029369982
35	0x3ed68953	0.41901645
36	0x3e927543	0.2860509
37	0x3e24dcee	0.16099903
38	0x3e43b4d5	0.1911195
39	0x3ee9e380	0.4568138
40	0x3ee2ef80	0.4432335
41	0x3e949c1c	0.29025352
42	0x3e82dd80	0.25559616
43	0x3e00d308	0.12580502
44	0x3de3bc1b	0.11119863
45	0x3ed60085	0.4179727
46	0x3dd5991c	0.10429594
47	0x3e96a6c7	0.29424116
48	0x3e233f8c	0.1594221
49	0xbd3102bb	-0.043215495
50	0x3dc9bdd4	0.0985066
51	0x3e1cf3ce	0.15327379
52	0x3e7cb635	0.24678881
53	0x3e93964a	0.288256
54	0x3def70c1	0.11691428
55	0x3cead367	0.028665258
56	0x3e81e290	0.25368166
57	0x3e4d39f3	0.20041637
58	0x3e2b691e	0.16739318
59	0x3ea81f5b	0.32836422
60	0x3e4a0475	0.19728263
61	0x3ec48804	0.38385022
62	0x3e2e1579	0.17000379
63	0x3dfe2785	0.124098815
64	0x3d381336	0.044940196
65	0x3e9967ad	0.2996191
66	0x3ec56403	0.38552865
67	0x3da01442	0.07816364
68	0x3e14b92a	0.1452376
69	0x3e482bdb	0.1954798
70	0x3ee11691	0.4396253
71	0x3e447345	0.19184597
72	0xbdc3b2e1	-0.09555603
73	0x3e964cb6	0.293554
74	0x3e65b121	0.2243085
75	0x3f1513b1	0.5823317
76	0x3d7bbbfa	0.061458565
77	0x3eb8ce9b	0.36095127
78	0x3e967658	0.29387164
79	0x3e70d31a	0.23518029
80	0x3e9f2ded	0.31089726
81	0x3f169c42	0.5883218
82	0x3ed903c6	0.4238569
83	0x3ecad71b	0.39617237

fc3.weight f4 [10, 84]
0	0xbe477f1b	-0.1948208
1	0x3e06abbc	0.13151449
2	0x3dbd84fd	0.09253881
3	0xbf050d64	-0.5197356
4	0x3d9250dd	0.0714433
5	0x3d9eb4ff	0.07749366
6	0x3d1ed151	0.03877384
7	0x3e2d4ae5	0.16923101
8	0xbf00eb41	-0.5035897
9	0xbedf6af2	-0.4363628
10	0x3d7ea820	0.062172055
11	0x3da25deb	0.0792807
12	0x3de45c30	0.11150396
13	0xbe6d1fa3	-0.231566
14	0xbe112f37	-0.14178167
15	0x3d8817c7	0.0664516
16	0xbd82b28c	-0.06381711
17	0x3e1961a3	0.14978652
18	0xbea90272	-0.33009678
19	0x3ddd094a	0.107927874
20	0xbeddd8d2	-0.43329483
21	0xbe20c4ac	-0.15700024
22	0x3ce86bc1	0.028371694
23	0xbd755cc5	-0.059902925
24	0xbe8dbb9f	-0.27682206
25	0xbbf1e98b	-0.007382577
26	0xbea37055	-0.3192164
27	0xbe8a663b	-0.2703112
28	0x3d9ec96c	0.07753262
29	0x3e2cb4b2	0.16865805
30	0xbed875bc	-0.42277324
31	0x3e138d38	0.1440934
32	0x3dd7ae18	0.105312526
33	0x3da9564b	0.08268412
34	0xbeb653da	-0.3561085
35	0x3e7fc665	0.24978025
36	0xbe8f30b7	-0.27966854
37	0x3cbc41a6	0.022980522
38	0xbd777c58	-0.060421318
39	0x3dd95e1b	0.10613652
40	0x3e004fce	0.12530443
41	0xbf075ba7	-0.52874225
42	0x3db149da	0.08656664
43	0x3d3dc8c3	0.04633404
44	0xbea6f410	-0.3260808
45	0x3dc151b7	0.09439414
46	0xbea01633	-0.31266937
47	0xbda6f2b2	-0.08151759
48	0x3db45a8e	0.088063344
49	0xbe9ee20e	-0.3103184
50	0x3e1eb405	0.1549836
51	0x3d8d8a6a	0.06911166
52	0xbd3fb100	-0.04679966
53	0x3d98fce4	0.0747011
54	0xbe4fc254	-0.20288974
55	0xbead17f3	-0.33807334
56	0xbe930b77	-0.28719684
57	0xbeabb788	-0.3353846
58	0xbc16c30a	-0.009201774
59	0xbeb340ca	-0.35010368
60	0xbea5e147	-0.32398435
61	0xbec77e9c	-0.38963783
62	0x3dc962a6	0.09833269
63	0x3ddb2a13	0.107013844
64	0x3d57f142	0.052720316
65	0xbe769251	-0.24079253
66	0x3e8a7764	0.27044213
67	0x3dbfc176	0.093630716
68	0xbe45d2e7	-0.19318734
69	0xbe309060	-0.17242575
70	0xbefabad7	-0.48970672
71	0xbe799801	-0.24374391
72	0xbe0dd95d	-0.13852449
73	0x3da44207	0.08020406
74	0xbbad5d6d	-0.0052906782
75	0x3e0b32b7	0.13593565
76	0xbec5de84	-0.38646328
77	0x3df046cb	0.11732253
78	0xbec4b348	-0.3841803
79	0xbf022878	-0.50843
80	0x3db336da	0.087506965
81	0xbeadb1f8	-0.33924842
82	0x3dcc7c26	0.09984617
83	0xbcf6d499	-0.030130671
84	0x3da03882	0.07823278
85	0xbeca00e6	-0.3945381
86	0xbeb9d14c	-0.36292493
87	0x3da4a5d3	0.08039441
88	0xbe0e5b1a	-0.1390194
89	0xbba1d950	-0.0049392357
90	0xbe9e10c9	-0.3087218
91	0xbec61c67	-0.38693544
92	0x3dbc1df3	0.091854
93	0xbe099cdd	-0.13438745
94	0xbe9d5889	-0.3073161
95	0x3e0d3051	0.13787962
96	0xbc7daa01	-0.015482427
97	0x3e2195cf	0.15779804
98	0xbee6e050	-0.45093012
99	0xbe13f038	-0.14447105
100	0xbe7fcc04	-0.2498017
101	0x3e28b482	0.16475108
102	0x3e342762	0.17593148
103	0xbe3d0e51	-0.18462493
104	0x3da567af	0.08076417
105	0x3d41fe37	0.04736158
106	0x3cda9fd7	0.026687546
107	0xbeb33a42	-0.35005385
108	0xbdebce7b	-0.115139924
109	0x3d6eb853	0.058281254
110	0x3db41e49	0.08794839
111	0x3d1a4faf	0.03767365
112	0x3e0c297a	0.13687697
113	0xbea6ace6	-0.32553786
114	0x3e0fa93c	0.14029402
115	0xbe928b9a	-0.28622133
116	0x3deda4e2	0.116037145
117	0xbe688a7e	-0.2270908
118	0x3d9ce27f	0.07660388
119	0xbe9de488	-0.30838418
120	0xbf1781de	-0.59182537
121	0x3d303635	0.043020446
122	0x3da1c57e	0.07898997
123	0xbe7757da	-0.24154606
124	0x3e364484	0.17799574
125	0x3dc8a00b	0.09796151
126	0xbe5f37ae	-0.21798584
127	0xbeeda7d4	-0.46417105
128	0xbdc02d09	-0.0938359
129	0x3d6cb141	0.05778623
130	0xbf09c3b8	-0.5381427
131	0xbe9b9790	-0.3038907
132	0xbefeca73	-0.49763831
133	0xbe402b44	-0.18766505
134	0xbe886e6a	-0.2664674
135	0x3d4a7d9a	0.04943619
136	0xbe99d149	-0.30042484
137	0xbeb5513c	-0.3541354
138	0xbea44c6c	-0.32089555
139	0x3e1235d7	0.14278351
140	0xbe69092a	-0.22757402
141	0x3dcfb423	0.1014178
142	0x3de2b1a8	0.110690415
143	0xbe07e7da	-0.13272038
144	0xbe2a84e7	-0.1665226
145	0x3e4502aa	0.19239298
146	0x3db30091	0.087403424
147	0x3e337e7b	0.17528717
148	0xbce6f89b	-0.028194716
149	0x3da373d1	0.079810746
150	0xbe07d57e	-0.13265035
151	0xbe35bb37	-0.17747198
152	0xbe98b1e2	-0.29823214
153	0x3db0ac6b	0.08626636
154	0x3e04529d	0.1292214
155	0x3e08b57f	0.13350485
156	0xbdd5f729	-0.10447533
157	0x3de44f4d	0.11147938
158	0xbe776da6	-0.24162921
159	0x3e32db3e	0.17466447
160	0x3db15d7c	0.08660409
161	0x3d63c9ca	0.055612363
162	0xbe5563b8	-0.20838821
163	0xbda367d9	-0.07978792
164	0xbed344c6	-0.41263407
165	0x3e370ffc	0.17877191
166	0xbef18e64	-0.47178948
167	0xbefcf1b0	-0.49403143
168	0xbe0b12fe	-0.13581464
169	0x3dbbbbe1	0.091666944
170	0xbe84bb2e	-0.25924057
171	0x3dfc6f0e	0.123258695
172	0xbe247941	-0.1606188
173	0x3d89558f	0.06705772
174	0x3d0ca273	0.03433461
175	0xbe41506c	-0.18878335
176	0xbe7c9b06	-0.24668512
177	0xbe4d7871	-0.20065476
178	0x3cbe9cbb	0.023268094
179	0xbe8541b3	-0.26026687
180	0x3db0d39b	0.086341105
181	0xbe474dc1	-0.19463255
182	0xbe93ef21	-0.28893378
183	0x3e117e6b	0.14208381
184	0x3e086c3c	0.13322538
185	0xbe8c4748	-0.27398133
186	0xbe9c5101	-0.3053055
187	0x3dc69601	0.0969658
188	0xbe297371	-0.16547944
189	0x3d062b1b	0.032755952
190	0xbe0a31b4	-0.13495523
191	0xbdd9cb38	-0.10634464
192	0x3e241d67	0.16026841
193	0x3c6428af	0.013925715
194	0x3db6e5fd	0.089305855
195	0x3dde21cc	0.1084629
196	0x3cf18811	0.029483827
197	0xbbbb4607	-0.005715135
198	0x3e179499	0.1480278
199	0x3d07d472	0.033161588
200	0x3dc1aed4	0.09457174
201	0x3de0e68c	0.10981473
202	0x3de01f29	0.10943443
203	0x3dd38456	0.103279755
204	0xbb376d24	-0.0027988637
205	0xbe0ae5d2	-0.13564232
206	0x3db24008	0.08703619
207	0x3df0d6f3	0.11759748
208	0xbeb15b1e	-0.3463983
209	0x3db8c20c	0.090213865
210	0x3d724b98	0.059154123
211	0xbea910f5	-0.3302075
212	0x3dac8787	0.08424287
213	0x3d473395	0.048633177
214	0xbe90dea7	-0.2829487
215	0x3dd99dd3	0.10625806
216	0xbe303014	-0.1720584
217	0xbe4b8c71	-0.19877793
218	0xbe21c232	-0.15796736
219	0x3db6d1c9	0.08926732
220	0x3d4da991	0.05021054
221	0xbdfb9b34	-0.12285462
222	0x3d056f3c	0.032576784
223	0x3b6da734	0.003626299
224	0x3d8474a2	0.064675584
225	0xbe1c8098	-0.1528343
226	0xbe43d470	-0.19124007
227	0xbe4f1cf0	-0.20225883
228	0x3e0ee45b	0.13954298
229	0xbe92c2b2	-0.28664166
230	0x3d679cc8	0.056546003
231	0xbe516d45	-0.2045184
232	0x3deaab22	0.11458422
233	0x3dd30d0b	0.10305222
234	0xbeecdc84	-0.4626199
235	0x3d5f7bb2	0.054561324
236	0xbe828c94	-0.25497878
237	0xbe7caba1	-0.24674846
238	0xbe3ecfa5	-0.18633898
239	0x3e10ac5f	0.14128254
240	0xbc06622b	-0.008202116
241	0xbe3ab101	-0.18231584
242	0x3c83a224	0.016068526
243	0x3df74675	0.120739855
244	0x3de3863d	0.11109588
245	0x3db7ee51	0.08981002
246	0x3d8fc31a	0.070196345
247	0xbe0b2b28	-0.13590682
248	0xbea23adf	-0.3168554
249	0xbea68a8c	-0.32527578
250	0xbeda2e58	-0.42613482
251	0xbed2251c	-0.41043937
252	0xbeaa0048	-0.3320334
253	0x3e04b440	0.12959385
254	0xbe7faf0a	-0.24969116
255	0x3db9b845	0.0906835

fc3.bias f4 [10]
0	0x3e94fdf2	0.29099995
1	0x3eaf5c03	0.34249887
2	0x3d23ab27	0.039958145
3	0xbe9c3dca	-0.3051589
4	0x3e454ec9	0.19268335
5	0x3e2f13c4	0.17097384
6	0xbeeb7aa1	-0.45991996
7	0xbe3be933	-0.18350677
8	0x3dab6c5a	0.08370276
9	0x3d1ec5c6	0.03876283
